…
historical data is loading from TBrain_Round2_DataSet_20180518/tetfp.csv
set look back to 50 for stock 52
Creating stateless model with layers 5, output_dim 128, optimizer adam, dropout 0.2
input_shape (50, 1), output 5
Adding the first LSTM layers
Adding additional LSTM layers 4
Adding additional LSTM layers 3
Adding additional LSTM layers 2
Adding additional LSTM layers 1
_________________________________________________________________
Layer (type)                 Output Shape              Param #   
=================================================================
lstm_1 (LSTM)                (None, 50, 128)           66560     
_________________________________________________________________
dropout_1 (Dropout)          (None, 50, 128)           0         
_________________________________________________________________
lstm_2 (LSTM)                (None, 50, 128)           131584    
_________________________________________________________________
dropout_2 (Dropout)          (None, 50, 128)           0         
_________________________________________________________________
lstm_3 (LSTM)                (None, 50, 128)           131584    
_________________________________________________________________
dropout_3 (Dropout)          (None, 50, 128)           0         
_________________________________________________________________
lstm_4 (LSTM)                (None, 50, 128)           131584    
_________________________________________________________________
dropout_4 (Dropout)          (None, 50, 128)           0         
_________________________________________________________________
lstm_5 (LSTM)                (None, 128)               131584    
_________________________________________________________________
dropout_5 (Dropout)          (None, 128)               0         
_________________________________________________________________
dense_1 (Dense)              (None, 5)                 645       
_________________________________________________________________
activation_1 (Activation)    (None, 5)                 0         
=================================================================
Total params: 593,541
Trainable params: 593,541
Non-trainable params: 0
_________________________________________________________________
None
Train on 1023 samples, validate on 240 samples
Epoch 1/200

 128/1023 [==>...........................] - ETA: 28s - loss: 0.0030 - mean_squared_error: 0.0030
 256/1023 [======>.......................] - ETA: 13s - loss: 0.0028 - mean_squared_error: 0.0028
…
128/240 [===============>..............] - ETA: 0s
240/240 [==============================] - 0s 797us/step
Test score: 0.0004980891399706404, mse: 0.0004980891399706404
Creating stateless model with layers 4, output_dim 128, optimizer adam, dropout 0.2
input_shape (50, 1), output 5
Adding the first LSTM layers
Adding additional LSTM layers 3
Adding additional LSTM layers 2
Adding additional LSTM layers 1
_________________________________________________________________
Layer (type)                 Output Shape              Param #   
=================================================================
lstm_6 (LSTM)                (None, 50, 128)           66560     
_________________________________________________________________
dropout_6 (Dropout)          (None, 50, 128)           0         
_________________________________________________________________
lstm_7 (LSTM)                (None, 50, 128)           131584    
_________________________________________________________________
dropout_7 (Dropout)          (None, 50, 128)           0         
_________________________________________________________________
lstm_8 (LSTM)                (None, 50, 128)           131584    
_________________________________________________________________
dropout_8 (Dropout)          (None, 50, 128)           0         
_________________________________________________________________
lstm_9 (LSTM)                (None, 128)               131584    
_________________________________________________________________
dropout_9 (Dropout)          (None, 128)               0         
_________________________________________________________________
dense_2 (Dense)              (None, 5)                 645       
_________________________________________________________________
activation_2 (Activation)    (None, 5)                 0         
=================================================================
Total params: 461,957
Trainable params: 461,957
Non-trainable params: 0
_________________________________________________________________
None
Train on 1023 samples, validate on 240 samples
Epoch 1/200

 128/1023 [==>...........................] - ETA: 21s - loss: 0.0031 - mean_squared_error: 0.0031
 256/1023 [======>.......................] - ETA: 10s - loss: 0.0028 - mean_squared_error: 0.0028
…
128/240 [===============>..............] - ETA: 0s
240/240 [==============================] - 0s 627us/step
Test score: 0.0005012330017052591, mse: 0.0005012330017052591
Creating stateless model with layers 4, output_dim 256, optimizer adam, dropout 0.2
input_shape (50, 1), output 5
Adding the first LSTM layers
Adding additional LSTM layers 3
Adding additional LSTM layers 2
Adding additional LSTM layers 1
_________________________________________________________________
Layer (type)                 Output Shape              Param #   
=================================================================
lstm_10 (LSTM)               (None, 50, 256)           264192    
_________________________________________________________________
dropout_10 (Dropout)         (None, 50, 256)           0         
_________________________________________________________________
lstm_11 (LSTM)               (None, 50, 256)           525312    
_________________________________________________________________
dropout_11 (Dropout)         (None, 50, 256)           0         
_________________________________________________________________
lstm_12 (LSTM)               (None, 50, 256)           525312    
_________________________________________________________________
dropout_12 (Dropout)         (None, 50, 256)           0         
_________________________________________________________________
lstm_13 (LSTM)               (None, 256)               525312    
_________________________________________________________________
dropout_13 (Dropout)         (None, 256)               0         
_________________________________________________________________
dense_3 (Dense)              (None, 5)                 1285      
_________________________________________________________________
activation_3 (Activation)    (None, 5)                 0         
=================================================================
Total params: 1,841,413
Trainable params: 1,841,413
Non-trainable params: 0
_________________________________________________________________
None
Train on 1023 samples, validate on 240 samples
Epoch 1/200

 128/1023 [==>...........................] - ETA: 24s - loss: 0.0030 - mean_squared_error: 0.0030
 256/1023 [======>.......................] - ETA: 11s - loss: 0.0027 - mean_squared_error: 0.0027
…
240/240 [==============================] - 0s 788us/step
Test score: 0.0004968345708524188, mse: 0.0004968345708524188
Creating stateless model with layers 5, output_dim 256, optimizer adam, dropout 0.2
input_shape (50, 1), output 5
Adding the first LSTM layers
Adding additional LSTM layers 4
Adding additional LSTM layers 3
Adding additional LSTM layers 2
Adding additional LSTM layers 1
_________________________________________________________________
Layer (type)                 Output Shape              Param #   
=================================================================
lstm_14 (LSTM)               (None, 50, 256)           264192    
_________________________________________________________________
dropout_14 (Dropout)         (None, 50, 256)           0         
_________________________________________________________________
lstm_15 (LSTM)               (None, 50, 256)           525312    
_________________________________________________________________
dropout_15 (Dropout)         (None, 50, 256)           0         
_________________________________________________________________
lstm_16 (LSTM)               (None, 50, 256)           525312    
_________________________________________________________________
dropout_16 (Dropout)         (None, 50, 256)           0         
_________________________________________________________________
lstm_17 (LSTM)               (None, 50, 256)           525312    
_________________________________________________________________
dropout_17 (Dropout)         (None, 50, 256)           0         
_________________________________________________________________
lstm_18 (LSTM)               (None, 256)               525312    
_________________________________________________________________
dropout_18 (Dropout)         (None, 256)               0         
_________________________________________________________________
dense_4 (Dense)              (None, 5)                 1285      
_________________________________________________________________
activation_4 (Activation)    (None, 5)                 0         
=================================================================
Total params: 2,366,725
Trainable params: 2,366,725
Non-trainable params: 0
_________________________________________________________________
None
Train on 1023 samples, validate on 240 samples
Epoch 1/200

 128/1023 [==>...........................] - ETA: 32s - loss: 0.0031 - mean_squared_error: 0.0031
 256/1023 [======>.......................] - ETA: 15s - loss: 0.0027 - mean_squared_error: 0.0027
…
