…
historical data is loading from TBrain_Round2_DataSet_20180518/tetfp.csv
set look back to 50 for stock 692
Creating stateless model with layers 5, output_dim 128, optimizer adam, dropout 0.2
input_shape (50, 1), output 5
Adding the first LSTM layers
Adding additional LSTM layers 4
Adding additional LSTM layers 3
Adding additional LSTM layers 2
Adding additional LSTM layers 1
_________________________________________________________________
Layer (type)                 Output Shape              Param #   
=================================================================
lstm_1 (LSTM)                (None, 50, 128)           66560     
_________________________________________________________________
dropout_1 (Dropout)          (None, 50, 128)           0         
_________________________________________________________________
lstm_2 (LSTM)                (None, 50, 128)           131584    
_________________________________________________________________
dropout_2 (Dropout)          (None, 50, 128)           0         
_________________________________________________________________
lstm_3 (LSTM)                (None, 50, 128)           131584    
_________________________________________________________________
dropout_3 (Dropout)          (None, 50, 128)           0         
_________________________________________________________________
lstm_4 (LSTM)                (None, 50, 128)           131584    
_________________________________________________________________
dropout_4 (Dropout)          (None, 50, 128)           0         
_________________________________________________________________
lstm_5 (LSTM)                (None, 128)               131584    
_________________________________________________________________
dropout_5 (Dropout)          (None, 128)               0         
_________________________________________________________________
dense_1 (Dense)              (None, 5)                 645       
_________________________________________________________________
activation_1 (Activation)    (None, 5)                 0         
=================================================================
Total params: 593,541
Trainable params: 593,541
Non-trainable params: 0
_________________________________________________________________
None
Train on 165 samples, validate on 30 samples
Epoch 1/200

128/165 [======================>.......] - ETA: 1s - loss: 0.0016 - mean_squared_error: 0.0016
165/165 [==============================] - 4s 27ms/step - loss: 0.0015 - mean_squared_error: 0.0015 - val_loss: 0.0019 - val_mean_squared_error: 0.0019
…
165/165 [==============================] - 1s 5ms/step - loss: 3.0548e-04 - mean_squared_error: 3.0548e-04 - val_loss: 1.7809e-04 - val_mean_squared_error: 1.7809e-04

30/30 [==============================] - 0s 3ms/step
Test score: 0.00017808849224820733, mse: 0.00017808849224820733
Creating stateless model with layers 4, output_dim 128, optimizer adam, dropout 0.2
input_shape (50, 1), output 5
Adding the first LSTM layers
Adding additional LSTM layers 3
Adding additional LSTM layers 2
Adding additional LSTM layers 1
_________________________________________________________________
Layer (type)                 Output Shape              Param #   
=================================================================
lstm_6 (LSTM)                (None, 50, 128)           66560     
_________________________________________________________________
dropout_6 (Dropout)          (None, 50, 128)           0         
_________________________________________________________________
lstm_7 (LSTM)                (None, 50, 128)           131584    
_________________________________________________________________
dropout_7 (Dropout)          (None, 50, 128)           0         
_________________________________________________________________
lstm_8 (LSTM)                (None, 50, 128)           131584    
_________________________________________________________________
dropout_8 (Dropout)          (None, 50, 128)           0         
_________________________________________________________________
lstm_9 (LSTM)                (None, 128)               131584    
_________________________________________________________________
dropout_9 (Dropout)          (None, 128)               0         
_________________________________________________________________
dense_2 (Dense)              (None, 5)                 645       
_________________________________________________________________
activation_2 (Activation)    (None, 5)                 0         
=================================================================
Total params: 461,957
Trainable params: 461,957
Non-trainable params: 0
_________________________________________________________________
None
Train on 165 samples, validate on 30 samples
Epoch 1/200

128/165 [======================>.......] - ETA: 0s - loss: 0.0016 - mean_squared_error: 0.0016
165/165 [==============================] - 3s 21ms/step - loss: 0.0016 - mean_squared_error: 0.0016 - val_loss: 0.0017 - val_mean_squared_error: 0.0017
…
Epoch 00168: early stopping

30/30 [==============================] - 0s 2ms/step
Test score: 0.00015571930271107703, mse: 0.00015571930271107703
Creating stateless model with layers 4, output_dim 256, optimizer adam, dropout 0.2
input_shape (50, 1), output 5
Adding the first LSTM layers
Adding additional LSTM layers 3
Adding additional LSTM layers 2
Adding additional LSTM layers 1
_________________________________________________________________
Layer (type)                 Output Shape              Param #   
=================================================================
lstm_10 (LSTM)               (None, 50, 256)           264192    
_________________________________________________________________
dropout_10 (Dropout)         (None, 50, 256)           0         
_________________________________________________________________
lstm_11 (LSTM)               (None, 50, 256)           525312    
_________________________________________________________________
dropout_11 (Dropout)         (None, 50, 256)           0         
_________________________________________________________________
lstm_12 (LSTM)               (None, 50, 256)           525312    
_________________________________________________________________
dropout_12 (Dropout)         (None, 50, 256)           0         
_________________________________________________________________
lstm_13 (LSTM)               (None, 256)               525312    
_________________________________________________________________
dropout_13 (Dropout)         (None, 256)               0         
_________________________________________________________________
dense_3 (Dense)              (None, 5)                 1285      
_________________________________________________________________
activation_3 (Activation)    (None, 5)                 0         
=================================================================
Total params: 1,841,413
Trainable params: 1,841,413
Non-trainable params: 0
_________________________________________________________________
None
Train on 165 samples, validate on 30 samples
Epoch 1/200

128/165 [======================>.......] - ETA: 0s - loss: 0.0017 - mean_squared_error: 0.0017
165/165 [==============================] - 4s 24ms/step - loss: 0.0016 - mean_squared_error: 0.0016 - val_loss: 0.0025 - val_mean_squared_error: 0.0025
…
30/30 [==============================] - 0s 3ms/step
Test score: 8.707153756404296e-05, mse: 8.707153756404296e-05
Creating stateless model with layers 5, output_dim 256, optimizer adam, dropout 0.2
input_shape (50, 1), output 5
Adding the first LSTM layers
Adding additional LSTM layers 4
Adding additional LSTM layers 3
Adding additional LSTM layers 2
Adding additional LSTM layers 1
_________________________________________________________________
Layer (type)                 Output Shape              Param #   
=================================================================
lstm_14 (LSTM)               (None, 50, 256)           264192    
_________________________________________________________________
dropout_14 (Dropout)         (None, 50, 256)           0         
_________________________________________________________________
lstm_15 (LSTM)               (None, 50, 256)           525312    
_________________________________________________________________
dropout_15 (Dropout)         (None, 50, 256)           0         
_________________________________________________________________
lstm_16 (LSTM)               (None, 50, 256)           525312    
_________________________________________________________________
dropout_16 (Dropout)         (None, 50, 256)           0         
_________________________________________________________________
lstm_17 (LSTM)               (None, 50, 256)           525312    
_________________________________________________________________
dropout_17 (Dropout)         (None, 50, 256)           0         
_________________________________________________________________
lstm_18 (LSTM)               (None, 256)               525312    
_________________________________________________________________
dropout_18 (Dropout)         (None, 256)               0         
_________________________________________________________________
dense_4 (Dense)              (None, 5)                 1285      
_________________________________________________________________
activation_4 (Activation)    (None, 5)                 0         
=================================================================
Total params: 2,366,725
Trainable params: 2,366,725
Non-trainable params: 0
_________________________________________________________________
None
Train on 165 samples, validate on 30 samples
Epoch 1/200

128/165 [======================>.......] - ETA: 1s - loss: 0.0016 - mean_squared_error: 0.0016
165/165 [==============================] - 5s 30ms/step - loss: 0.0015 - mean_squared_error: 0.0015 - val_loss: 0.0028 - val_mean_squared_error: 0.0028
…
