…
historical data is loading from TBrain_Round2_DataSet_20180518/tetfp.csv
set look back to 50 for stock 701
Creating stateless model with layers 5, output_dim 128, optimizer adam, dropout 0.2
input_shape (50, 1), output 5
Adding the first LSTM layers
Adding additional LSTM layers 4
Adding additional LSTM layers 3
Adding additional LSTM layers 2
Adding additional LSTM layers 1
_________________________________________________________________
Layer (type)                 Output Shape              Param #   
=================================================================
lstm_1 (LSTM)                (None, 50, 128)           66560     
_________________________________________________________________
dropout_1 (Dropout)          (None, 50, 128)           0         
_________________________________________________________________
lstm_2 (LSTM)                (None, 50, 128)           131584    
_________________________________________________________________
dropout_2 (Dropout)          (None, 50, 128)           0         
_________________________________________________________________
lstm_3 (LSTM)                (None, 50, 128)           131584    
_________________________________________________________________
dropout_3 (Dropout)          (None, 50, 128)           0         
_________________________________________________________________
lstm_4 (LSTM)                (None, 50, 128)           131584    
_________________________________________________________________
dropout_4 (Dropout)          (None, 50, 128)           0         
_________________________________________________________________
lstm_5 (LSTM)                (None, 128)               131584    
_________________________________________________________________
dropout_5 (Dropout)          (None, 128)               0         
_________________________________________________________________
dense_1 (Dense)              (None, 5)                 645       
_________________________________________________________________
activation_1 (Activation)    (None, 5)                 0         
=================================================================
Total params: 593,541
Trainable params: 593,541
Non-trainable params: 0
_________________________________________________________________
None
Train on 100 samples, validate on 30 samples
Epoch 1/200

100/100 [==============================] - 4s 41ms/step - loss: 0.0014 - mean_squared_error: 0.0014 - val_loss: 4.3890e-04 - val_mean_squared_error: 4.3890e-04
…
Epoch 00199: early stopping

30/30 [==============================] - 0s 3ms/step
Test score: 0.0002384037506999448, mse: 0.0002384037506999448
Creating stateless model with layers 4, output_dim 128, optimizer adam, dropout 0.2
input_shape (50, 1), output 5
Adding the first LSTM layers
Adding additional LSTM layers 3
Adding additional LSTM layers 2
Adding additional LSTM layers 1
_________________________________________________________________
Layer (type)                 Output Shape              Param #   
=================================================================
lstm_6 (LSTM)                (None, 50, 128)           66560     
_________________________________________________________________
dropout_6 (Dropout)          (None, 50, 128)           0         
_________________________________________________________________
lstm_7 (LSTM)                (None, 50, 128)           131584    
_________________________________________________________________
dropout_7 (Dropout)          (None, 50, 128)           0         
_________________________________________________________________
lstm_8 (LSTM)                (None, 50, 128)           131584    
_________________________________________________________________
dropout_8 (Dropout)          (None, 50, 128)           0         
_________________________________________________________________
lstm_9 (LSTM)                (None, 128)               131584    
_________________________________________________________________
dropout_9 (Dropout)          (None, 128)               0         
_________________________________________________________________
dense_2 (Dense)              (None, 5)                 645       
_________________________________________________________________
activation_2 (Activation)    (None, 5)                 0         
=================================================================
Total params: 461,957
Trainable params: 461,957
Non-trainable params: 0
_________________________________________________________________
None
Train on 100 samples, validate on 30 samples
Epoch 1/200

100/100 [==============================] - 3s 31ms/step - loss: 0.0014 - mean_squared_error: 0.0014 - val_loss: 4.1304e-04 - val_mean_squared_error: 4.1304e-04
…
Epoch 00165: early stopping

30/30 [==============================] - 0s 2ms/step
Test score: 0.00022204108245205134, mse: 0.00022204108245205134
Creating stateless model with layers 4, output_dim 256, optimizer adam, dropout 0.2
input_shape (50, 1), output 5
Adding the first LSTM layers
Adding additional LSTM layers 3
Adding additional LSTM layers 2
Adding additional LSTM layers 1
_________________________________________________________________
Layer (type)                 Output Shape              Param #   
=================================================================
lstm_10 (LSTM)               (None, 50, 256)           264192    
_________________________________________________________________
dropout_10 (Dropout)         (None, 50, 256)           0         
_________________________________________________________________
lstm_11 (LSTM)               (None, 50, 256)           525312    
_________________________________________________________________
dropout_11 (Dropout)         (None, 50, 256)           0         
_________________________________________________________________
lstm_12 (LSTM)               (None, 50, 256)           525312    
_________________________________________________________________
dropout_12 (Dropout)         (None, 50, 256)           0         
_________________________________________________________________
lstm_13 (LSTM)               (None, 256)               525312    
_________________________________________________________________
dropout_13 (Dropout)         (None, 256)               0         
_________________________________________________________________
dense_3 (Dense)              (None, 5)                 1285      
_________________________________________________________________
activation_3 (Activation)    (None, 5)                 0         
=================================================================
Total params: 1,841,413
Trainable params: 1,841,413
Non-trainable params: 0
_________________________________________________________________
None
Train on 100 samples, validate on 30 samples
Epoch 1/200

100/100 [==============================] - 4s 36ms/step - loss: 0.0014 - mean_squared_error: 0.0014 - val_loss: 4.7890e-04 - val_mean_squared_error: 4.7890e-04
…
30/30 [==============================] - 0s 3ms/step
Test score: 0.00020634358224924654, mse: 0.00020634358224924654
Creating stateless model with layers 5, output_dim 256, optimizer adam, dropout 0.2
input_shape (50, 1), output 5
Adding the first LSTM layers
Adding additional LSTM layers 4
Adding additional LSTM layers 3
Adding additional LSTM layers 2
Adding additional LSTM layers 1
_________________________________________________________________
Layer (type)                 Output Shape              Param #   
=================================================================
lstm_14 (LSTM)               (None, 50, 256)           264192    
_________________________________________________________________
dropout_14 (Dropout)         (None, 50, 256)           0         
_________________________________________________________________
lstm_15 (LSTM)               (None, 50, 256)           525312    
_________________________________________________________________
dropout_15 (Dropout)         (None, 50, 256)           0         
_________________________________________________________________
lstm_16 (LSTM)               (None, 50, 256)           525312    
_________________________________________________________________
dropout_16 (Dropout)         (None, 50, 256)           0         
_________________________________________________________________
lstm_17 (LSTM)               (None, 50, 256)           525312    
_________________________________________________________________
dropout_17 (Dropout)         (None, 50, 256)           0         
_________________________________________________________________
lstm_18 (LSTM)               (None, 256)               525312    
_________________________________________________________________
dropout_18 (Dropout)         (None, 256)               0         
_________________________________________________________________
dense_4 (Dense)              (None, 5)                 1285      
_________________________________________________________________
activation_4 (Activation)    (None, 5)                 0         
=================================================================
Total params: 2,366,725
Trainable params: 2,366,725
Non-trainable params: 0
_________________________________________________________________
None
Train on 100 samples, validate on 30 samples
Epoch 1/200

100/100 [==============================] - 5s 49ms/step - loss: 0.0014 - mean_squared_error: 0.0014 - val_loss: 5.2376e-04 - val_mean_squared_error: 5.2376e-04
…
