…
  59:     return {'loss': mse, 'status': STATUS_OK, 'model': regressor}
  60: 
Loading dataset for 50
historical data is loading from TBrain_Round2_DataSet_20180331/tetfp.csv
Creating stateless model with layers 3, output_dim 60, optimizer rmsprop, dropout 0.2
input_shape (50, 3), output 5
Adding the first LSTM layers
Adding additional LSTM layers 2
Adding additional LSTM layers 1
_________________________________________________________________
Layer (type)                 Output Shape              Param #   
=================================================================
lstm_1 (LSTM)                (None, 50, 60)            15360     
_________________________________________________________________
dropout_1 (Dropout)          (None, 50, 60)            0         
_________________________________________________________________
lstm_2 (LSTM)                (None, 50, 60)            29040     
_________________________________________________________________
dropout_2 (Dropout)          (None, 50, 60)            0         
_________________________________________________________________
lstm_3 (LSTM)                (None, 60)                29040     
_________________________________________________________________
dropout_3 (Dropout)          (None, 60)                0         
_________________________________________________________________
dense_1 (Dense)              (None, 5)                 305       
_________________________________________________________________
activation_1 (Activation)    (None, 5)                 0         
=================================================================
Total params: 73,745
Trainable params: 73,745
Non-trainable params: 0
_________________________________________________________________
None
Train on 992 samples, validate on 240 samples
Epoch 1/1

 32/992 [..............................] - ETA: 1:53 - loss: 4.8292e-04 - mean_squared_error: 4.8292e-04
 64/992 [>.............................] - ETA: 58s - loss: 5.1221e-04 - mean_squared_error: 5.1221e-04 
…
 32/240 [===>..........................] - ETA: 0s
192/240 [=======================>......] - ETA: 0s
240/240 [==============================] - 0s 375us/step
Test score: 0.001014901443462198, mse: 0.001014901443462198
Creating stateless model with layers 2, output_dim 90, optimizer rmsprop, dropout 0.2
input_shape (50, 3), output 5
Adding the first LSTM layers
Adding additional LSTM layers 1
_________________________________________________________________
Layer (type)                 Output Shape              Param #   
=================================================================
lstm_6 (LSTM)                (None, 50, 90)            33840     
_________________________________________________________________
dropout_5 (Dropout)          (None, 50, 90)            0         
_________________________________________________________________
lstm_7 (LSTM)                (None, 90)                65160     
_________________________________________________________________
dropout_6 (Dropout)          (None, 90)                0         
_________________________________________________________________
dense_4 (Dense)              (None, 5)                 455       
_________________________________________________________________
activation_4 (Activation)    (None, 5)                 0         
=================================================================
Total params: 99,455
Trainable params: 99,455
Non-trainable params: 0
_________________________________________________________________
None
Train on 992 samples, validate on 240 samples
Epoch 1/10

  1/992 [..............................] - ETA: 50:05 - loss: 2.9310e-05 - mean_squared_error: 2.9310e-05
  2/992 [..............................] - ETA: 25:53 - loss: 3.0567e-04 - mean_squared_error: 3.0567e-04
…
238/240 [============================>.] - ETA: 0s
240/240 [==============================] - 4s 16ms/step
Test score: 0.0007206812215561816, mse: 0.0007206812215561816
Creating stateless model with layers 4, output_dim 90, optimizer adam, dropout 0.2
input_shape (50, 3), output 5
Adding the first LSTM layers
Adding additional LSTM layers 3
Adding additional LSTM layers 2
Adding additional LSTM layers 1
_________________________________________________________________
Layer (type)                 Output Shape              Param #   
=================================================================
lstm_8 (LSTM)                (None, 50, 90)            33840     
_________________________________________________________________
dropout_7 (Dropout)          (None, 50, 90)            0         
_________________________________________________________________
lstm_9 (LSTM)                (None, 50, 90)            65160     
_________________________________________________________________
dropout_8 (Dropout)          (None, 50, 90)            0         
_________________________________________________________________
lstm_10 (LSTM)               (None, 50, 90)            65160     
_________________________________________________________________
dropout_9 (Dropout)          (None, 50, 90)            0         
_________________________________________________________________
lstm_11 (LSTM)               (None, 90)                65160     
_________________________________________________________________
dropout_10 (Dropout)         (None, 90)                0         
_________________________________________________________________
dense_5 (Dense)              (None, 5)                 455       
_________________________________________________________________
activation_5 (Activation)    (None, 5)                 0         
=================================================================
Total params: 229,775
Trainable params: 229,775
Non-trainable params: 0
_________________________________________________________________
None
Train on 992 samples, validate on 240 samples
Epoch 1/100

  1/992 [..............................] - ETA: 1:34:59 - loss: 1.3210e-05 - mean_squared_error: 1.3210e-05
  2/992 [..............................] - ETA: 49:27 - loss: 4.5015e-05 - mean_squared_error: 4.5015e-05  
…
