…
Loading dataset for 006208
historical data is loading from TBrain_Round2_DataSet_20180511/tetfp.csv
set look back to 50 for stock 6208
Creating stateless model with layers 4, output_dim 256, optimizer adam, dropout 0.3
input_shape (50, 6), output 5
Adding the first LSTM layers
Adding additional LSTM layers 3
Adding additional LSTM layers 2
Adding additional LSTM layers 1
_________________________________________________________________
Layer (type)                 Output Shape              Param #   
=================================================================
lstm_1 (LSTM)                (None, 50, 256)           269312    
_________________________________________________________________
dropout_1 (Dropout)          (None, 50, 256)           0         
_________________________________________________________________
lstm_2 (LSTM)                (None, 50, 256)           525312    
_________________________________________________________________
dropout_2 (Dropout)          (None, 50, 256)           0         
_________________________________________________________________
lstm_3 (LSTM)                (None, 50, 256)           525312    
_________________________________________________________________
dropout_3 (Dropout)          (None, 50, 256)           0         
_________________________________________________________________
lstm_4 (LSTM)                (None, 256)               525312    
_________________________________________________________________
dropout_4 (Dropout)          (None, 256)               0         
_________________________________________________________________
dense_1 (Dense)              (None, 5)                 1285      
_________________________________________________________________
activation_1 (Activation)    (None, 5)                 0         
=================================================================
Total params: 1,846,533
Trainable params: 1,846,533
Non-trainable params: 0
_________________________________________________________________
None
Train on 1018 samples, validate on 240 samples
Epoch 1/50

 128/1018 [==>...........................] - ETA: 22s - loss: 6.6145e-04 - mean_squared_error: 6.6145e-04
 256/1018 [======>.......................] - ETA: 10s - loss: 5.9504e-04 - mean_squared_error: 5.9504e-04
…
1018/1018 [==============================] - 1s 647us/step - loss: 2.8533e-04 - mean_squared_error: 2.8533e-04 - val_loss: 3.2448e-04 - val_mean_squared_error: 3.2448e-04

128/240 [===============>..............] - ETA: 0s
240/240 [==============================] - 0s 162us/step
Test score: 0.0003244752549411108, mse: 0.0003244752549411108
Creating stateless model with layers 2, output_dim 60, optimizer rmsprop, dropout 0.4
input_shape (50, 6), output 5
Adding the first LSTM layers
Adding additional LSTM layers 1
_________________________________________________________________
Layer (type)                 Output Shape              Param #   
=================================================================
lstm_6 (LSTM)                (None, 50, 60)            16080     
_________________________________________________________________
dropout_6 (Dropout)          (None, 50, 60)            0         
_________________________________________________________________
lstm_7 (LSTM)                (None, 60)                29040     
_________________________________________________________________
dropout_7 (Dropout)          (None, 60)                0         
_________________________________________________________________
dense_3 (Dense)              (None, 5)                 305       
_________________________________________________________________
activation_3 (Activation)    (None, 5)                 0         
=================================================================
Total params: 45,425
Trainable params: 45,425
Non-trainable params: 0
_________________________________________________________________
None
Train on 1018 samples, validate on 240 samples
Epoch 1/200

  32/1018 [..............................] - ETA: 43s - loss: 4.4695e-04 - mean_squared_error: 4.4695e-04
  64/1018 [>.............................] - ETA: 23s - loss: 5.8305e-04 - mean_squared_error: 5.8305e-04
…
224/240 [===========================>..] - ETA: 0s
240/240 [==============================] - 0s 1ms/step
Test score: 0.0003261744393967092, mse: 0.0003261744393967092
Creating stateless model with layers 4, output_dim 60, optimizer adam, dropout 0.2
input_shape (50, 6), output 5
Adding the first LSTM layers
Adding additional LSTM layers 3
Adding additional LSTM layers 2
Adding additional LSTM layers 1
_________________________________________________________________
Layer (type)                 Output Shape              Param #   
=================================================================
lstm_8 (LSTM)                (None, 50, 60)            16080     
_________________________________________________________________
dropout_8 (Dropout)          (None, 50, 60)            0         
_________________________________________________________________
lstm_9 (LSTM)                (None, 50, 60)            29040     
_________________________________________________________________
dropout_9 (Dropout)          (None, 50, 60)            0         
_________________________________________________________________
lstm_10 (LSTM)               (None, 50, 60)            29040     
_________________________________________________________________
dropout_10 (Dropout)         (None, 50, 60)            0         
_________________________________________________________________
lstm_11 (LSTM)               (None, 60)                29040     
_________________________________________________________________
dropout_11 (Dropout)         (None, 60)                0         
_________________________________________________________________
dense_4 (Dense)              (None, 5)                 305       
_________________________________________________________________
activation_4 (Activation)    (None, 5)                 0         
=================================================================
Total params: 103,505
Trainable params: 103,505
Non-trainable params: 0
_________________________________________________________________
None
Train on 1018 samples, validate on 240 samples
Epoch 1/100

  32/1018 [..............................] - ETA: 1:29 - loss: 4.8742e-04 - mean_squared_error: 4.8742e-04
  64/1018 [>.............................] - ETA: 47s - loss: 6.2402e-04 - mean_squared_error: 6.2402e-04 
…
224/240 [===========================>..] - ETA: 0s
240/240 [==============================] - 1s 2ms/step
Test score: 0.0003217133324748526, mse: 0.0003217133324748526
Creating stateless model with layers 4, output_dim 50, optimizer adam, dropout 0.3
input_shape (50, 6), output 5
Adding the first LSTM layers
Adding additional LSTM layers 3
Adding additional LSTM layers 2
Adding additional LSTM layers 1
_________________________________________________________________
Layer (type)                 Output Shape              Param #   
=================================================================
lstm_12 (LSTM)               (None, 50, 50)            11400     
_________________________________________________________________
dropout_12 (Dropout)         (None, 50, 50)            0         
_________________________________________________________________
lstm_13 (LSTM)               (None, 50, 50)            20200     
_________________________________________________________________
dropout_13 (Dropout)         (None, 50, 50)            0         
_________________________________________________________________
lstm_14 (LSTM)               (None, 50, 50)            20200     
_________________________________________________________________
dropout_14 (Dropout)         (None, 50, 50)            0         
_________________________________________________________________
lstm_15 (LSTM)               (None, 50)                20200     
_________________________________________________________________
dropout_15 (Dropout)         (None, 50)                0         
_________________________________________________________________
dense_5 (Dense)              (None, 5)                 255       
_________________________________________________________________
activation_5 (Activation)    (None, 5)                 0         
=================================================================
Total params: 72,255
Trainable params: 72,255
Non-trainable params: 0
_________________________________________________________________
None
Train on 1018 samples, validate on 240 samples
Epoch 1/150

 128/1018 [==>...........................] - ETA: 21s - loss: 6.6156e-04 - mean_squared_error: 6.6156e-04
 256/1018 [======>.......................] - ETA: 10s - loss: 6.5250e-04 - mean_squared_error: 6.5250e-04
…
1018/1018 [==============================] - 3s 3ms/step - loss: 4.8207e-04 - mean_squared_error: 4.8207e-04 - val_loss: 5.0402e-04 - val_mean_squared_error: 5.0402e-04

128/240 [===============>..............] - ETA: 0s
240/240 [==============================] - 0s 575us/step
Test score: 0.0005040222158034642, mse: 0.0005040222158034642
Creating stateless model with layers 2, output_dim 256, optimizer adam, dropout 0.4
input_shape (50, 6), output 5
Adding the first LSTM layers
Adding additional LSTM layers 1
_________________________________________________________________
Layer (type)                 Output Shape              Param #   
=================================================================
lstm_24 (LSTM)               (None, 50, 256)           269312    
_________________________________________________________________
dropout_24 (Dropout)         (None, 50, 256)           0         
_________________________________________________________________
lstm_25 (LSTM)               (None, 256)               525312    
_________________________________________________________________
dropout_25 (Dropout)         (None, 256)               0         
_________________________________________________________________
dense_8 (Dense)              (None, 5)                 1285      
_________________________________________________________________
activation_8 (Activation)    (None, 5)                 0         
=================================================================
Total params: 795,909
Trainable params: 795,909
Non-trainable params: 0
_________________________________________________________________
None
Train on 1018 samples, validate on 240 samples
Epoch 1/150

  32/1018 [..............................] - ETA: 1:28 - loss: 4.9995e-04 - mean_squared_error: 4.9995e-04
  64/1018 [>.............................] - ETA: 45s - loss: 5.1533e-04 - mean_squared_error: 5.1533e-04 
…
