…
  60: 
Loading dataset for 0053
historical data is loading from TBrain_Round2_DataSet_20180511/tetfp.csv
set look back to 50 for stock 53
Creating stateless model with layers 4, output_dim 256, optimizer adam, dropout 0.3
input_shape (50, 6), output 5
Adding the first LSTM layers
Adding additional LSTM layers 3
Adding additional LSTM layers 2
Adding additional LSTM layers 1
_________________________________________________________________
Layer (type)                 Output Shape              Param #   
=================================================================
lstm_1 (LSTM)                (None, 50, 256)           269312    
_________________________________________________________________
dropout_1 (Dropout)          (None, 50, 256)           0         
_________________________________________________________________
lstm_2 (LSTM)                (None, 50, 256)           525312    
_________________________________________________________________
dropout_2 (Dropout)          (None, 50, 256)           0         
_________________________________________________________________
lstm_3 (LSTM)                (None, 50, 256)           525312    
_________________________________________________________________
dropout_3 (Dropout)          (None, 50, 256)           0         
_________________________________________________________________
lstm_4 (LSTM)                (None, 256)               525312    
_________________________________________________________________
dropout_4 (Dropout)          (None, 256)               0         
_________________________________________________________________
dense_1 (Dense)              (None, 5)                 1285      
_________________________________________________________________
activation_1 (Activation)    (None, 5)                 0         
=================================================================
Total params: 1,846,533
Trainable params: 1,846,533
Non-trainable params: 0
_________________________________________________________________
None
Train on 1018 samples, validate on 240 samples
Epoch 1/50

 128/1018 [==>...........................] - ETA: 23s - loss: 0.0016 - mean_squared_error: 0.0016
 256/1018 [======>.......................] - ETA: 10s - loss: 0.0016 - mean_squared_error: 0.0016
…
1018/1018 [==============================] - 1s 673us/step - loss: 3.6047e-04 - mean_squared_error: 3.6047e-04 - val_loss: 3.2178e-04 - val_mean_squared_error: 3.2178e-04

128/240 [===============>..............] - ETA: 0s
240/240 [==============================] - 0s 161us/step
Test score: 0.0003217819709486018, mse: 0.0003217819709486018
Creating stateless model with layers 2, output_dim 60, optimizer rmsprop, dropout 0.4
input_shape (50, 6), output 5
Adding the first LSTM layers
Adding additional LSTM layers 1
_________________________________________________________________
Layer (type)                 Output Shape              Param #   
=================================================================
lstm_6 (LSTM)                (None, 50, 60)            16080     
_________________________________________________________________
dropout_6 (Dropout)          (None, 50, 60)            0         
_________________________________________________________________
lstm_7 (LSTM)                (None, 60)                29040     
_________________________________________________________________
dropout_7 (Dropout)          (None, 60)                0         
_________________________________________________________________
dense_3 (Dense)              (None, 5)                 305       
_________________________________________________________________
activation_3 (Activation)    (None, 5)                 0         
=================================================================
Total params: 45,425
Trainable params: 45,425
Non-trainable params: 0
_________________________________________________________________
None
Train on 1018 samples, validate on 240 samples
Epoch 1/200

  32/1018 [..............................] - ETA: 45s - loss: 0.0012 - mean_squared_error: 0.0012
  64/1018 [>.............................] - ETA: 24s - loss: 0.0012 - mean_squared_error: 0.0012
…
224/240 [===========================>..] - ETA: 0s
240/240 [==============================] - 0s 1ms/step
Test score: 0.0003288952303895106, mse: 0.0003288952303895106
Creating stateless model with layers 4, output_dim 60, optimizer adam, dropout 0.2
input_shape (50, 6), output 5
Adding the first LSTM layers
Adding additional LSTM layers 3
Adding additional LSTM layers 2
Adding additional LSTM layers 1
_________________________________________________________________
Layer (type)                 Output Shape              Param #   
=================================================================
lstm_8 (LSTM)                (None, 50, 60)            16080     
_________________________________________________________________
dropout_8 (Dropout)          (None, 50, 60)            0         
_________________________________________________________________
lstm_9 (LSTM)                (None, 50, 60)            29040     
_________________________________________________________________
dropout_9 (Dropout)          (None, 50, 60)            0         
_________________________________________________________________
lstm_10 (LSTM)               (None, 50, 60)            29040     
_________________________________________________________________
dropout_10 (Dropout)         (None, 50, 60)            0         
_________________________________________________________________
lstm_11 (LSTM)               (None, 60)                29040     
_________________________________________________________________
dropout_11 (Dropout)         (None, 60)                0         
_________________________________________________________________
dense_4 (Dense)              (None, 5)                 305       
_________________________________________________________________
activation_4 (Activation)    (None, 5)                 0         
=================================================================
Total params: 103,505
Trainable params: 103,505
Non-trainable params: 0
_________________________________________________________________
None
Train on 1018 samples, validate on 240 samples
Epoch 1/100

  32/1018 [..............................] - ETA: 1:29 - loss: 0.0012 - mean_squared_error: 0.0012
  64/1018 [>.............................] - ETA: 47s - loss: 0.0015 - mean_squared_error: 0.0015 
…
224/240 [===========================>..] - ETA: 0s
240/240 [==============================] - 1s 2ms/step
Test score: 0.00040504841599613427, mse: 0.00040504841599613427
Creating stateless model with layers 4, output_dim 50, optimizer adam, dropout 0.3
input_shape (50, 6), output 5
Adding the first LSTM layers
Adding additional LSTM layers 3
Adding additional LSTM layers 2
Adding additional LSTM layers 1
_________________________________________________________________
Layer (type)                 Output Shape              Param #   
=================================================================
lstm_12 (LSTM)               (None, 50, 50)            11400     
_________________________________________________________________
dropout_12 (Dropout)         (None, 50, 50)            0         
_________________________________________________________________
lstm_13 (LSTM)               (None, 50, 50)            20200     
_________________________________________________________________
dropout_13 (Dropout)         (None, 50, 50)            0         
_________________________________________________________________
lstm_14 (LSTM)               (None, 50, 50)            20200     
_________________________________________________________________
dropout_14 (Dropout)         (None, 50, 50)            0         
_________________________________________________________________
lstm_15 (LSTM)               (None, 50)                20200     
_________________________________________________________________
dropout_15 (Dropout)         (None, 50)                0         
_________________________________________________________________
dense_5 (Dense)              (None, 5)                 255       
_________________________________________________________________
activation_5 (Activation)    (None, 5)                 0         
=================================================================
Total params: 72,255
Trainable params: 72,255
Non-trainable params: 0
_________________________________________________________________
None
Train on 1018 samples, validate on 240 samples
Epoch 1/150

 128/1018 [==>...........................] - ETA: 22s - loss: 0.0017 - mean_squared_error: 0.0017
 256/1018 [======>.......................] - ETA: 10s - loss: 0.0019 - mean_squared_error: 0.0019
…
1018/1018 [==============================] - 3s 3ms/step - loss: 6.2652e-04 - mean_squared_error: 6.2652e-04 - val_loss: 5.4495e-04 - val_mean_squared_error: 5.4495e-04

128/240 [===============>..............] - ETA: 0s
240/240 [==============================] - 0s 584us/step
Test score: 0.0005449499508055548, mse: 0.0005449499508055548
Creating stateless model with layers 2, output_dim 256, optimizer adam, dropout 0.4
input_shape (50, 6), output 5
Adding the first LSTM layers
Adding additional LSTM layers 1
_________________________________________________________________
Layer (type)                 Output Shape              Param #   
=================================================================
lstm_24 (LSTM)               (None, 50, 256)           269312    
_________________________________________________________________
dropout_24 (Dropout)         (None, 50, 256)           0         
_________________________________________________________________
lstm_25 (LSTM)               (None, 256)               525312    
_________________________________________________________________
dropout_25 (Dropout)         (None, 256)               0         
_________________________________________________________________
dense_8 (Dense)              (None, 5)                 1285      
_________________________________________________________________
activation_8 (Activation)    (None, 5)                 0         
=================================================================
Total params: 795,909
Trainable params: 795,909
Non-trainable params: 0
_________________________________________________________________
None
Train on 1018 samples, validate on 240 samples
Epoch 1/150

  32/1018 [..............................] - ETA: 1:28 - loss: 0.0012 - mean_squared_error: 0.0012
  64/1018 [>.............................] - ETA: 45s - loss: 0.0013 - mean_squared_error: 0.0013 
…
