…
  60: 
Loading dataset for 0050
historical data is loading from TBrain_Round2_DataSet_20180511/tetfp.csv
set look back to 100 for stock 50
Creating stateless model with layers 4, output_dim 256, optimizer adam, dropout 0.3
input_shape (100, 6), output 5
Adding the first LSTM layers
Adding additional LSTM layers 3
Adding additional LSTM layers 2
Adding additional LSTM layers 1
_________________________________________________________________
Layer (type)                 Output Shape              Param #   
=================================================================
lstm_1 (LSTM)                (None, 100, 256)          269312    
_________________________________________________________________
dropout_1 (Dropout)          (None, 100, 256)          0         
_________________________________________________________________
lstm_2 (LSTM)                (None, 100, 256)          525312    
_________________________________________________________________
dropout_2 (Dropout)          (None, 100, 256)          0         
_________________________________________________________________
lstm_3 (LSTM)                (None, 100, 256)          525312    
_________________________________________________________________
dropout_3 (Dropout)          (None, 100, 256)          0         
_________________________________________________________________
lstm_4 (LSTM)                (None, 256)               525312    
_________________________________________________________________
dropout_4 (Dropout)          (None, 256)               0         
_________________________________________________________________
dense_1 (Dense)              (None, 5)                 1285      
_________________________________________________________________
activation_1 (Activation)    (None, 5)                 0         
=================================================================
Total params: 1,846,533
Trainable params: 1,846,533
Non-trainable params: 0
_________________________________________________________________
None
Train on 968 samples, validate on 240 samples
Epoch 1/50

128/968 [==>...........................] - ETA: 24s - loss: 8.3250e-04 - mean_squared_error: 8.3250e-04
256/968 [======>.......................] - ETA: 11s - loss: 0.0017 - mean_squared_error: 0.0017        
…
968/968 [==============================] - 1s 1ms/step - loss: 3.4217e-04 - mean_squared_error: 3.4217e-04 - val_loss: 2.3819e-04 - val_mean_squared_error: 2.3819e-04

128/240 [===============>..............] - ETA: 0s
240/240 [==============================] - 0s 291us/step
Test score: 0.00023818529249789813, mse: 0.00023818529249789813
Creating stateless model with layers 2, output_dim 60, optimizer rmsprop, dropout 0.4
input_shape (100, 6), output 5
Adding the first LSTM layers
Adding additional LSTM layers 1
_________________________________________________________________
Layer (type)                 Output Shape              Param #   
=================================================================
lstm_6 (LSTM)                (None, 100, 60)           16080     
_________________________________________________________________
dropout_6 (Dropout)          (None, 100, 60)           0         
_________________________________________________________________
lstm_7 (LSTM)                (None, 60)                29040     
_________________________________________________________________
dropout_7 (Dropout)          (None, 60)                0         
_________________________________________________________________
dense_3 (Dense)              (None, 5)                 305       
_________________________________________________________________
activation_3 (Activation)    (None, 5)                 0         
=================================================================
Total params: 45,425
Trainable params: 45,425
Non-trainable params: 0
_________________________________________________________________
None
Train on 968 samples, validate on 240 samples
Epoch 1/200

 32/968 [..............................] - ETA: 46s - loss: 8.7224e-04 - mean_squared_error: 8.7224e-04
 64/968 [>.............................] - ETA: 26s - loss: 8.8273e-04 - mean_squared_error: 8.8273e-04
…
224/240 [===========================>..] - ETA: 0s
240/240 [==============================] - 1s 2ms/step
Test score: 0.0002383411308983341, mse: 0.0002383411308983341
Creating stateless model with layers 4, output_dim 60, optimizer adam, dropout 0.2
input_shape (100, 6), output 5
Adding the first LSTM layers
Adding additional LSTM layers 3
Adding additional LSTM layers 2
Adding additional LSTM layers 1
_________________________________________________________________
Layer (type)                 Output Shape              Param #   
=================================================================
lstm_8 (LSTM)                (None, 100, 60)           16080     
_________________________________________________________________
dropout_8 (Dropout)          (None, 100, 60)           0         
_________________________________________________________________
lstm_9 (LSTM)                (None, 100, 60)           29040     
_________________________________________________________________
dropout_9 (Dropout)          (None, 100, 60)           0         
_________________________________________________________________
lstm_10 (LSTM)               (None, 100, 60)           29040     
_________________________________________________________________
dropout_10 (Dropout)         (None, 100, 60)           0         
_________________________________________________________________
lstm_11 (LSTM)               (None, 60)                29040     
_________________________________________________________________
dropout_11 (Dropout)         (None, 60)                0         
_________________________________________________________________
dense_4 (Dense)              (None, 5)                 305       
_________________________________________________________________
activation_4 (Activation)    (None, 5)                 0         
=================================================================
Total params: 103,505
Trainable params: 103,505
Non-trainable params: 0
_________________________________________________________________
None
Train on 968 samples, validate on 240 samples
Epoch 1/100

 32/968 [..............................] - ETA: 1:34 - loss: 7.2006e-04 - mean_squared_error: 7.2006e-04
 64/968 [>.............................] - ETA: 54s - loss: 5.8075e-04 - mean_squared_error: 5.8075e-04 
…
224/240 [===========================>..] - ETA: 0s
240/240 [==============================] - 1s 5ms/step
Test score: 0.00025393607405324776, mse: 0.00025393607405324776
Creating stateless model with layers 4, output_dim 50, optimizer adam, dropout 0.3
input_shape (100, 6), output 5
Adding the first LSTM layers
Adding additional LSTM layers 3
Adding additional LSTM layers 2
Adding additional LSTM layers 1
_________________________________________________________________
Layer (type)                 Output Shape              Param #   
=================================================================
lstm_12 (LSTM)               (None, 100, 50)           11400     
_________________________________________________________________
dropout_12 (Dropout)         (None, 100, 50)           0         
_________________________________________________________________
lstm_13 (LSTM)               (None, 100, 50)           20200     
_________________________________________________________________
dropout_13 (Dropout)         (None, 100, 50)           0         
_________________________________________________________________
lstm_14 (LSTM)               (None, 100, 50)           20200     
_________________________________________________________________
dropout_14 (Dropout)         (None, 100, 50)           0         
_________________________________________________________________
lstm_15 (LSTM)               (None, 50)                20200     
_________________________________________________________________
dropout_15 (Dropout)         (None, 50)                0         
_________________________________________________________________
dense_5 (Dense)              (None, 5)                 255       
_________________________________________________________________
activation_5 (Activation)    (None, 5)                 0         
=================================================================
Total params: 72,255
Trainable params: 72,255
Non-trainable params: 0
_________________________________________________________________
None
Train on 968 samples, validate on 240 samples
Epoch 1/150

128/968 [==>...........................] - ETA: 22s - loss: 8.1786e-04 - mean_squared_error: 8.1786e-04
256/968 [======>.......................] - ETA: 11s - loss: 0.0021 - mean_squared_error: 0.0021        
…
968/968 [==============================] - 5s 5ms/step - loss: 7.1760e-04 - mean_squared_error: 7.1760e-04 - val_loss: 4.3781e-04 - val_mean_squared_error: 4.3781e-04

128/240 [===============>..............] - ETA: 0s
240/240 [==============================] - 0s 1ms/step
Test score: 0.0004378084403773149, mse: 0.0004378084403773149
Creating stateless model with layers 2, output_dim 256, optimizer adam, dropout 0.4
input_shape (100, 6), output 5
Adding the first LSTM layers
Adding additional LSTM layers 1
_________________________________________________________________
Layer (type)                 Output Shape              Param #   
=================================================================
lstm_24 (LSTM)               (None, 100, 256)          269312    
_________________________________________________________________
dropout_24 (Dropout)         (None, 100, 256)          0         
_________________________________________________________________
lstm_25 (LSTM)               (None, 256)               525312    
_________________________________________________________________
dropout_25 (Dropout)         (None, 256)               0         
_________________________________________________________________
dense_8 (Dense)              (None, 5)                 1285      
_________________________________________________________________
activation_8 (Activation)    (None, 5)                 0         
=================================================================
Total params: 795,909
Trainable params: 795,909
Non-trainable params: 0
_________________________________________________________________
None
Train on 968 samples, validate on 240 samples
Epoch 1/150

 32/968 [..............................] - ETA: 1:30 - loss: 7.5072e-04 - mean_squared_error: 7.5072e-04
 64/968 [>.............................] - ETA: 48s - loss: 5.6855e-04 - mean_squared_error: 5.6855e-04 
…
