…
  60: 
Loading dataset for 0058
historical data is loading from TBrain_Round2_DataSet_20180511/tetfp.csv
set look back to 110 for stock 58
Creating stateless model with layers 4, output_dim 256, optimizer adam, dropout 0.3
input_shape (110, 6), output 5
Adding the first LSTM layers
Adding additional LSTM layers 3
Adding additional LSTM layers 2
Adding additional LSTM layers 1
_________________________________________________________________
Layer (type)                 Output Shape              Param #   
=================================================================
lstm_1 (LSTM)                (None, 110, 256)          269312    
_________________________________________________________________
dropout_1 (Dropout)          (None, 110, 256)          0         
_________________________________________________________________
lstm_2 (LSTM)                (None, 110, 256)          525312    
_________________________________________________________________
dropout_2 (Dropout)          (None, 110, 256)          0         
_________________________________________________________________
lstm_3 (LSTM)                (None, 110, 256)          525312    
_________________________________________________________________
dropout_3 (Dropout)          (None, 110, 256)          0         
_________________________________________________________________
lstm_4 (LSTM)                (None, 256)               525312    
_________________________________________________________________
dropout_4 (Dropout)          (None, 256)               0         
_________________________________________________________________
dense_1 (Dense)              (None, 5)                 1285      
_________________________________________________________________
activation_1 (Activation)    (None, 5)                 0         
=================================================================
Total params: 1,846,533
Trainable params: 1,846,533
Non-trainable params: 0
_________________________________________________________________
None
Train on 958 samples, validate on 240 samples
Epoch 1/50

128/958 [===>..........................] - ETA: 23s - loss: 0.0044 - mean_squared_error: 0.0044
256/958 [=======>......................] - ETA: 11s - loss: 0.0029 - mean_squared_error: 0.0029
…
958/958 [==============================] - 1s 1ms/step - loss: 3.0709e-04 - mean_squared_error: 3.0709e-04 - val_loss: 1.7686e-04 - val_mean_squared_error: 1.7686e-04

128/240 [===============>..............] - ETA: 0s
240/240 [==============================] - 0s 312us/step
Test score: 0.00017686490124712388, mse: 0.00017686490124712388
Creating stateless model with layers 2, output_dim 60, optimizer rmsprop, dropout 0.4
input_shape (110, 6), output 5
Adding the first LSTM layers
Adding additional LSTM layers 1
_________________________________________________________________
Layer (type)                 Output Shape              Param #   
=================================================================
lstm_6 (LSTM)                (None, 110, 60)           16080     
_________________________________________________________________
dropout_6 (Dropout)          (None, 110, 60)           0         
_________________________________________________________________
lstm_7 (LSTM)                (None, 60)                29040     
_________________________________________________________________
dropout_7 (Dropout)          (None, 60)                0         
_________________________________________________________________
dense_3 (Dense)              (None, 5)                 305       
_________________________________________________________________
activation_3 (Activation)    (None, 5)                 0         
=================================================================
Total params: 45,425
Trainable params: 45,425
Non-trainable params: 0
_________________________________________________________________
None
Train on 958 samples, validate on 240 samples
Epoch 1/200

 32/958 [>.............................] - ETA: 46s - loss: 0.0021 - mean_squared_error: 0.0021
 64/958 [=>............................] - ETA: 27s - loss: 0.0017 - mean_squared_error: 0.0017
…
224/240 [===========================>..] - ETA: 0s
240/240 [==============================] - 1s 2ms/step
Test score: 0.00019143399549648166, mse: 0.00019143399549648166
Creating stateless model with layers 4, output_dim 60, optimizer adam, dropout 0.2
input_shape (110, 6), output 5
Adding the first LSTM layers
Adding additional LSTM layers 3
Adding additional LSTM layers 2
Adding additional LSTM layers 1
_________________________________________________________________
Layer (type)                 Output Shape              Param #   
=================================================================
lstm_8 (LSTM)                (None, 110, 60)           16080     
_________________________________________________________________
dropout_8 (Dropout)          (None, 110, 60)           0         
_________________________________________________________________
lstm_9 (LSTM)                (None, 110, 60)           29040     
_________________________________________________________________
dropout_9 (Dropout)          (None, 110, 60)           0         
_________________________________________________________________
lstm_10 (LSTM)               (None, 110, 60)           29040     
_________________________________________________________________
dropout_10 (Dropout)         (None, 110, 60)           0         
_________________________________________________________________
lstm_11 (LSTM)               (None, 60)                29040     
_________________________________________________________________
dropout_11 (Dropout)         (None, 60)                0         
_________________________________________________________________
dense_4 (Dense)              (None, 5)                 305       
_________________________________________________________________
activation_4 (Activation)    (None, 5)                 0         
=================================================================
Total params: 103,505
Trainable params: 103,505
Non-trainable params: 0
_________________________________________________________________
None
Train on 958 samples, validate on 240 samples
Epoch 1/100

 32/958 [>.............................] - ETA: 1:31 - loss: 0.0022 - mean_squared_error: 0.0022
 64/958 [=>............................] - ETA: 53s - loss: 0.0026 - mean_squared_error: 0.0026 
…
224/240 [===========================>..] - ETA: 0s
240/240 [==============================] - 1s 5ms/step
Test score: 0.00024372320428180198, mse: 0.00024372320428180198
Creating stateless model with layers 4, output_dim 50, optimizer adam, dropout 0.3
input_shape (110, 6), output 5
Adding the first LSTM layers
Adding additional LSTM layers 3
Adding additional LSTM layers 2
Adding additional LSTM layers 1
_________________________________________________________________
Layer (type)                 Output Shape              Param #   
=================================================================
lstm_12 (LSTM)               (None, 110, 50)           11400     
_________________________________________________________________
dropout_12 (Dropout)         (None, 110, 50)           0         
_________________________________________________________________
lstm_13 (LSTM)               (None, 110, 50)           20200     
_________________________________________________________________
dropout_13 (Dropout)         (None, 110, 50)           0         
_________________________________________________________________
lstm_14 (LSTM)               (None, 110, 50)           20200     
_________________________________________________________________
dropout_14 (Dropout)         (None, 110, 50)           0         
_________________________________________________________________
lstm_15 (LSTM)               (None, 50)                20200     
_________________________________________________________________
dropout_15 (Dropout)         (None, 50)                0         
_________________________________________________________________
dense_5 (Dense)              (None, 5)                 255       
_________________________________________________________________
activation_5 (Activation)    (None, 5)                 0         
=================================================================
Total params: 72,255
Trainable params: 72,255
Non-trainable params: 0
_________________________________________________________________
None
Train on 958 samples, validate on 240 samples
Epoch 1/150

128/958 [===>..........................] - ETA: 22s - loss: 0.0044 - mean_squared_error: 0.0044
256/958 [=======>......................] - ETA: 11s - loss: 0.0032 - mean_squared_error: 0.0032
…
958/958 [==============================] - 6s 6ms/step - loss: 5.9120e-04 - mean_squared_error: 5.9120e-04 - val_loss: 2.9748e-04 - val_mean_squared_error: 2.9748e-04

128/240 [===============>..............] - ETA: 0s
240/240 [==============================] - 0s 1ms/step
Test score: 0.0002974794382074227, mse: 0.0002974794382074227
Creating stateless model with layers 2, output_dim 256, optimizer adam, dropout 0.4
input_shape (110, 6), output 5
Adding the first LSTM layers
Adding additional LSTM layers 1
_________________________________________________________________
Layer (type)                 Output Shape              Param #   
=================================================================
lstm_24 (LSTM)               (None, 110, 256)          269312    
_________________________________________________________________
dropout_24 (Dropout)         (None, 110, 256)          0         
_________________________________________________________________
lstm_25 (LSTM)               (None, 256)               525312    
_________________________________________________________________
dropout_25 (Dropout)         (None, 256)               0         
_________________________________________________________________
dense_8 (Dense)              (None, 5)                 1285      
_________________________________________________________________
activation_8 (Activation)    (None, 5)                 0         
=================================================================
Total params: 795,909
Trainable params: 795,909
Non-trainable params: 0
_________________________________________________________________
None
Train on 958 samples, validate on 240 samples
Epoch 1/150

 32/958 [>.............................] - ETA: 1:30 - loss: 0.0021 - mean_squared_error: 0.0021
 64/958 [=>............................] - ETA: 48s - loss: 0.0021 - mean_squared_error: 0.0021 
…
