…
Loading dataset for 006201
historical data is loading from TBrain_Round2_DataSet_20180511/tetfp.csv
set look back to 70 for stock 6201
Creating stateless model with layers 4, output_dim 256, optimizer adam, dropout 0.3
input_shape (70, 6), output 5
Adding the first LSTM layers
Adding additional LSTM layers 3
Adding additional LSTM layers 2
Adding additional LSTM layers 1
_________________________________________________________________
Layer (type)                 Output Shape              Param #   
=================================================================
lstm_1 (LSTM)                (None, 70, 256)           269312    
_________________________________________________________________
dropout_1 (Dropout)          (None, 70, 256)           0         
_________________________________________________________________
lstm_2 (LSTM)                (None, 70, 256)           525312    
_________________________________________________________________
dropout_2 (Dropout)          (None, 70, 256)           0         
_________________________________________________________________
lstm_3 (LSTM)                (None, 70, 256)           525312    
_________________________________________________________________
dropout_3 (Dropout)          (None, 70, 256)           0         
_________________________________________________________________
lstm_4 (LSTM)                (None, 256)               525312    
_________________________________________________________________
dropout_4 (Dropout)          (None, 256)               0         
_________________________________________________________________
dense_1 (Dense)              (None, 5)                 1285      
_________________________________________________________________
activation_1 (Activation)    (None, 5)                 0         
=================================================================
Total params: 1,846,533
Trainable params: 1,846,533
Non-trainable params: 0
_________________________________________________________________
None
Train on 998 samples, validate on 240 samples
Epoch 1/50

128/998 [==>...........................] - ETA: 22s - loss: 0.0053 - mean_squared_error: 0.0053
256/998 [======>.......................] - ETA: 11s - loss: 0.0041 - mean_squared_error: 0.0041
…
998/998 [==============================] - 1s 894us/step - loss: 4.7733e-04 - mean_squared_error: 4.7733e-04 - val_loss: 5.9170e-04 - val_mean_squared_error: 5.9170e-04

128/240 [===============>..............] - ETA: 0s
240/240 [==============================] - 0s 204us/step
Test score: 0.0005917003029026092, mse: 0.0005917003029026092
Creating stateless model with layers 2, output_dim 60, optimizer rmsprop, dropout 0.4
input_shape (70, 6), output 5
Adding the first LSTM layers
Adding additional LSTM layers 1
_________________________________________________________________
Layer (type)                 Output Shape              Param #   
=================================================================
lstm_6 (LSTM)                (None, 70, 60)            16080     
_________________________________________________________________
dropout_6 (Dropout)          (None, 70, 60)            0         
_________________________________________________________________
lstm_7 (LSTM)                (None, 60)                29040     
_________________________________________________________________
dropout_7 (Dropout)          (None, 60)                0         
_________________________________________________________________
dense_3 (Dense)              (None, 5)                 305       
_________________________________________________________________
activation_3 (Activation)    (None, 5)                 0         
=================================================================
Total params: 45,425
Trainable params: 45,425
Non-trainable params: 0
_________________________________________________________________
None
Train on 998 samples, validate on 240 samples
Epoch 1/200

 32/998 [..............................] - ETA: 46s - loss: 0.0141 - mean_squared_error: 0.0141
 64/998 [>.............................] - ETA: 25s - loss: 0.0075 - mean_squared_error: 0.0075
…
224/240 [===========================>..] - ETA: 0s
240/240 [==============================] - 0s 2ms/step
Test score: 0.0005470655586880942, mse: 0.0005470655586880942
Creating stateless model with layers 4, output_dim 60, optimizer adam, dropout 0.2
input_shape (70, 6), output 5
Adding the first LSTM layers
Adding additional LSTM layers 3
Adding additional LSTM layers 2
Adding additional LSTM layers 1
_________________________________________________________________
Layer (type)                 Output Shape              Param #   
=================================================================
lstm_8 (LSTM)                (None, 70, 60)            16080     
_________________________________________________________________
dropout_8 (Dropout)          (None, 70, 60)            0         
_________________________________________________________________
lstm_9 (LSTM)                (None, 70, 60)            29040     
_________________________________________________________________
dropout_9 (Dropout)          (None, 70, 60)            0         
_________________________________________________________________
lstm_10 (LSTM)               (None, 70, 60)            29040     
_________________________________________________________________
dropout_10 (Dropout)         (None, 70, 60)            0         
_________________________________________________________________
lstm_11 (LSTM)               (None, 60)                29040     
_________________________________________________________________
dropout_11 (Dropout)         (None, 60)                0         
_________________________________________________________________
dense_4 (Dense)              (None, 5)                 305       
_________________________________________________________________
activation_4 (Activation)    (None, 5)                 0         
=================================================================
Total params: 103,505
Trainable params: 103,505
Non-trainable params: 0
_________________________________________________________________
None
Train on 998 samples, validate on 240 samples
Epoch 1/100

 32/998 [..............................] - ETA: 1:34 - loss: 0.0139 - mean_squared_error: 0.0139
 64/998 [>.............................] - ETA: 51s - loss: 0.0079 - mean_squared_error: 0.0079 
…
224/240 [===========================>..] - ETA: 0s
240/240 [==============================] - 1s 3ms/step
Test score: 0.0006530500288742284, mse: 0.0006530500288742284
Creating stateless model with layers 4, output_dim 50, optimizer adam, dropout 0.3
input_shape (70, 6), output 5
Adding the first LSTM layers
Adding additional LSTM layers 3
Adding additional LSTM layers 2
Adding additional LSTM layers 1
_________________________________________________________________
Layer (type)                 Output Shape              Param #   
=================================================================
lstm_12 (LSTM)               (None, 70, 50)            11400     
_________________________________________________________________
dropout_12 (Dropout)         (None, 70, 50)            0         
_________________________________________________________________
lstm_13 (LSTM)               (None, 70, 50)            20200     
_________________________________________________________________
dropout_13 (Dropout)         (None, 70, 50)            0         
_________________________________________________________________
lstm_14 (LSTM)               (None, 70, 50)            20200     
_________________________________________________________________
dropout_14 (Dropout)         (None, 70, 50)            0         
_________________________________________________________________
lstm_15 (LSTM)               (None, 50)                20200     
_________________________________________________________________
dropout_15 (Dropout)         (None, 50)                0         
_________________________________________________________________
dense_5 (Dense)              (None, 5)                 255       
_________________________________________________________________
activation_5 (Activation)    (None, 5)                 0         
=================================================================
Total params: 72,255
Trainable params: 72,255
Non-trainable params: 0
_________________________________________________________________
None
Train on 998 samples, validate on 240 samples
Epoch 1/150

128/998 [==>...........................] - ETA: 22s - loss: 0.0051 - mean_squared_error: 0.0051
256/998 [======>.......................] - ETA: 10s - loss: 0.0044 - mean_squared_error: 0.0044
…
998/998 [==============================] - 4s 4ms/step - loss: 8.8667e-04 - mean_squared_error: 8.8667e-04 - val_loss: 0.0010 - val_mean_squared_error: 0.0010

128/240 [===============>..............] - ETA: 0s
240/240 [==============================] - 0s 786us/step
Test score: 0.0010482914978638292, mse: 0.0010482914978638292
Creating stateless model with layers 2, output_dim 256, optimizer adam, dropout 0.4
input_shape (70, 6), output 5
Adding the first LSTM layers
Adding additional LSTM layers 1
_________________________________________________________________
Layer (type)                 Output Shape              Param #   
=================================================================
lstm_24 (LSTM)               (None, 70, 256)           269312    
_________________________________________________________________
dropout_24 (Dropout)         (None, 70, 256)           0         
_________________________________________________________________
lstm_25 (LSTM)               (None, 256)               525312    
_________________________________________________________________
dropout_25 (Dropout)         (None, 256)               0         
_________________________________________________________________
dense_8 (Dense)              (None, 5)                 1285      
_________________________________________________________________
activation_8 (Activation)    (None, 5)                 0         
=================================================================
Total params: 795,909
Trainable params: 795,909
Non-trainable params: 0
_________________________________________________________________
None
Train on 998 samples, validate on 240 samples
Epoch 1/150

 32/998 [..............................] - ETA: 1:28 - loss: 0.0145 - mean_squared_error: 0.0145
 64/998 [>.............................] - ETA: 46s - loss: 0.0078 - mean_squared_error: 0.0078 
…
