…
  60: 
Loading dataset for 00692
historical data is loading from TBrain_Round2_DataSet_20180511/tetfp.csv
set look back to 50 for stock 692
Creating stateless model with layers 4, output_dim 256, optimizer adam, dropout 0.3
input_shape (50, 6), output 5
Adding the first LSTM layers
Adding additional LSTM layers 3
Adding additional LSTM layers 2
Adding additional LSTM layers 1
_________________________________________________________________
Layer (type)                 Output Shape              Param #   
=================================================================
lstm_1 (LSTM)                (None, 50, 256)           269312    
_________________________________________________________________
dropout_1 (Dropout)          (None, 50, 256)           0         
_________________________________________________________________
lstm_2 (LSTM)                (None, 50, 256)           525312    
_________________________________________________________________
dropout_2 (Dropout)          (None, 50, 256)           0         
_________________________________________________________________
lstm_3 (LSTM)                (None, 50, 256)           525312    
_________________________________________________________________
dropout_3 (Dropout)          (None, 50, 256)           0         
_________________________________________________________________
lstm_4 (LSTM)                (None, 256)               525312    
_________________________________________________________________
dropout_4 (Dropout)          (None, 256)               0         
_________________________________________________________________
dense_1 (Dense)              (None, 5)                 1285      
_________________________________________________________________
activation_1 (Activation)    (None, 5)                 0         
=================================================================
Total params: 1,846,533
Trainable params: 1,846,533
Non-trainable params: 0
_________________________________________________________________
None
Train on 160 samples, validate on 30 samples
Epoch 1/50

128/160 [=======================>......] - ETA: 0s - loss: 0.0017 - mean_squared_error: 0.0017
160/160 [==============================] - 4s 24ms/step - loss: 0.0016 - mean_squared_error: 0.0016 - val_loss: 0.0022 - val_mean_squared_error: 0.0022
…
160/160 [==============================] - 0s 1ms/step - loss: 3.3162e-04 - mean_squared_error: 3.3162e-04 - val_loss: 1.1285e-04 - val_mean_squared_error: 1.1285e-04

30/30 [==============================] - 0s 622us/step
Test score: 0.00011284791980870068, mse: 0.00011284791980870068
Creating stateless model with layers 2, output_dim 60, optimizer rmsprop, dropout 0.4
input_shape (50, 6), output 5
Adding the first LSTM layers
Adding additional LSTM layers 1
_________________________________________________________________
Layer (type)                 Output Shape              Param #   
=================================================================
lstm_6 (LSTM)                (None, 50, 60)            16080     
_________________________________________________________________
dropout_6 (Dropout)          (None, 50, 60)            0         
_________________________________________________________________
lstm_7 (LSTM)                (None, 60)                29040     
_________________________________________________________________
dropout_7 (Dropout)          (None, 60)                0         
_________________________________________________________________
dense_3 (Dense)              (None, 5)                 305       
_________________________________________________________________
activation_3 (Activation)    (None, 5)                 0         
=================================================================
Total params: 45,425
Trainable params: 45,425
Non-trainable params: 0
_________________________________________________________________
None
Train on 160 samples, validate on 30 samples
Epoch 1/200

 32/160 [=====>........................] - ETA: 5s - loss: 0.0047 - mean_squared_error: 0.0047
 64/160 [===========>..................] - ETA: 2s - loss: 0.0030 - mean_squared_error: 0.0030
…
160/160 [==============================] - 1s 5ms/step - loss: 2.3130e-04 - mean_squared_error: 2.3130e-04 - val_loss: 2.0681e-04 - val_mean_squared_error: 2.0681e-04

30/30 [==============================] - 0s 1ms/step
Test score: 0.0002068082249024883, mse: 0.0002068082249024883
Creating stateless model with layers 4, output_dim 60, optimizer adam, dropout 0.2
input_shape (50, 6), output 5
Adding the first LSTM layers
Adding additional LSTM layers 3
Adding additional LSTM layers 2
Adding additional LSTM layers 1
_________________________________________________________________
Layer (type)                 Output Shape              Param #   
=================================================================
lstm_8 (LSTM)                (None, 50, 60)            16080     
_________________________________________________________________
dropout_8 (Dropout)          (None, 50, 60)            0         
_________________________________________________________________
lstm_9 (LSTM)                (None, 50, 60)            29040     
_________________________________________________________________
dropout_9 (Dropout)          (None, 50, 60)            0         
_________________________________________________________________
lstm_10 (LSTM)               (None, 50, 60)            29040     
_________________________________________________________________
dropout_10 (Dropout)         (None, 50, 60)            0         
_________________________________________________________________
lstm_11 (LSTM)               (None, 60)                29040     
_________________________________________________________________
dropout_11 (Dropout)         (None, 60)                0         
_________________________________________________________________
dense_4 (Dense)              (None, 5)                 305       
_________________________________________________________________
activation_4 (Activation)    (None, 5)                 0         
=================================================================
Total params: 103,505
Trainable params: 103,505
Non-trainable params: 0
_________________________________________________________________
None
Train on 160 samples, validate on 30 samples
Epoch 1/100

 32/160 [=====>........................] - ETA: 11s - loss: 0.0039 - mean_squared_error: 0.0039
 64/160 [===========>..................] - ETA: 4s - loss: 0.0021 - mean_squared_error: 0.0021 
…
160/160 [==============================] - 2s 10ms/step - loss: 2.9977e-04 - mean_squared_error: 2.9977e-04 - val_loss: 5.8806e-04 - val_mean_squared_error: 5.8806e-04

30/30 [==============================] - 0s 2ms/step
Test score: 0.0005880565731786191, mse: 0.0005880565731786191
Creating stateless model with layers 4, output_dim 50, optimizer adam, dropout 0.3
input_shape (50, 6), output 5
Adding the first LSTM layers
Adding additional LSTM layers 3
Adding additional LSTM layers 2
Adding additional LSTM layers 1
_________________________________________________________________
Layer (type)                 Output Shape              Param #   
=================================================================
lstm_12 (LSTM)               (None, 50, 50)            11400     
_________________________________________________________________
dropout_12 (Dropout)         (None, 50, 50)            0         
_________________________________________________________________
lstm_13 (LSTM)               (None, 50, 50)            20200     
_________________________________________________________________
dropout_13 (Dropout)         (None, 50, 50)            0         
_________________________________________________________________
lstm_14 (LSTM)               (None, 50, 50)            20200     
_________________________________________________________________
dropout_14 (Dropout)         (None, 50, 50)            0         
_________________________________________________________________
lstm_15 (LSTM)               (None, 50)                20200     
_________________________________________________________________
dropout_15 (Dropout)         (None, 50)                0         
_________________________________________________________________
dense_5 (Dense)              (None, 5)                 255       
_________________________________________________________________
activation_5 (Activation)    (None, 5)                 0         
=================================================================
Total params: 72,255
Trainable params: 72,255
Non-trainable params: 0
_________________________________________________________________
None
Train on 160 samples, validate on 30 samples
Epoch 1/150

128/160 [=======================>......] - ETA: 0s - loss: 0.0016 - mean_squared_error: 0.0016
160/160 [==============================] - 4s 25ms/step - loss: 0.0016 - mean_squared_error: 0.0016 - val_loss: 0.0014 - val_mean_squared_error: 0.0014
…
160/160 [==============================] - 1s 4ms/step - loss: 5.5778e-04 - mean_squared_error: 5.5778e-04 - val_loss: 6.5205e-04 - val_mean_squared_error: 6.5205e-04

30/30 [==============================] - 0s 2ms/step
Test score: 0.0006520464667119086, mse: 0.0006520464667119086
Creating stateless model with layers 2, output_dim 256, optimizer adam, dropout 0.4
input_shape (50, 6), output 5
Adding the first LSTM layers
Adding additional LSTM layers 1
_________________________________________________________________
Layer (type)                 Output Shape              Param #   
=================================================================
lstm_24 (LSTM)               (None, 50, 256)           269312    
_________________________________________________________________
dropout_24 (Dropout)         (None, 50, 256)           0         
_________________________________________________________________
lstm_25 (LSTM)               (None, 256)               525312    
_________________________________________________________________
dropout_25 (Dropout)         (None, 256)               0         
_________________________________________________________________
dense_8 (Dense)              (None, 5)                 1285      
_________________________________________________________________
activation_8 (Activation)    (None, 5)                 0         
=================================================================
Total params: 795,909
Trainable params: 795,909
Non-trainable params: 0
_________________________________________________________________
None
Train on 160 samples, validate on 30 samples
Epoch 1/150

 32/160 [=====>........................] - ETA: 11s - loss: 0.0028 - mean_squared_error: 0.0028
 64/160 [===========>..................] - ETA: 4s - loss: 0.0018 - mean_squared_error: 0.0018 
…
