…
  60: 
Loading dataset for 0057
historical data is loading from TBrain_Round2_DataSet_20180511/tetfp.csv
set look back to 110 for stock 57
Creating stateless model with layers 4, output_dim 256, optimizer adam, dropout 0.3
input_shape (110, 6), output 5
Adding the first LSTM layers
Adding additional LSTM layers 3
Adding additional LSTM layers 2
Adding additional LSTM layers 1
_________________________________________________________________
Layer (type)                 Output Shape              Param #   
=================================================================
lstm_1 (LSTM)                (None, 110, 256)          269312    
_________________________________________________________________
dropout_1 (Dropout)          (None, 110, 256)          0         
_________________________________________________________________
lstm_2 (LSTM)                (None, 110, 256)          525312    
_________________________________________________________________
dropout_2 (Dropout)          (None, 110, 256)          0         
_________________________________________________________________
lstm_3 (LSTM)                (None, 110, 256)          525312    
_________________________________________________________________
dropout_3 (Dropout)          (None, 110, 256)          0         
_________________________________________________________________
lstm_4 (LSTM)                (None, 256)               525312    
_________________________________________________________________
dropout_4 (Dropout)          (None, 256)               0         
_________________________________________________________________
dense_1 (Dense)              (None, 5)                 1285      
_________________________________________________________________
activation_1 (Activation)    (None, 5)                 0         
=================================================================
Total params: 1,846,533
Trainable params: 1,846,533
Non-trainable params: 0
_________________________________________________________________
None
Train on 958 samples, validate on 240 samples
Epoch 1/50

128/958 [===>..........................] - ETA: 24s - loss: 0.0021 - mean_squared_error: 0.0021
256/958 [=======>......................] - ETA: 12s - loss: 0.0030 - mean_squared_error: 0.0030
…
958/958 [==============================] - 1s 2ms/step - loss: 3.8340e-04 - mean_squared_error: 3.8340e-04 - val_loss: 2.4811e-04 - val_mean_squared_error: 2.4811e-04

128/240 [===============>..............] - ETA: 0s
240/240 [==============================] - 0s 333us/step
Test score: 0.0002481120463926345, mse: 0.0002481120463926345
Creating stateless model with layers 2, output_dim 60, optimizer rmsprop, dropout 0.4
input_shape (110, 6), output 5
Adding the first LSTM layers
Adding additional LSTM layers 1
_________________________________________________________________
Layer (type)                 Output Shape              Param #   
=================================================================
lstm_6 (LSTM)                (None, 110, 60)           16080     
_________________________________________________________________
dropout_6 (Dropout)          (None, 110, 60)           0         
_________________________________________________________________
lstm_7 (LSTM)                (None, 60)                29040     
_________________________________________________________________
dropout_7 (Dropout)          (None, 60)                0         
_________________________________________________________________
dense_3 (Dense)              (None, 5)                 305       
_________________________________________________________________
activation_3 (Activation)    (None, 5)                 0         
=================================================================
Total params: 45,425
Trainable params: 45,425
Non-trainable params: 0
_________________________________________________________________
None
Train on 958 samples, validate on 240 samples
Epoch 1/200

 32/958 [>.............................] - ETA: 46s - loss: 0.0020 - mean_squared_error: 0.0020
 64/958 [=>............................] - ETA: 27s - loss: 0.0017 - mean_squared_error: 0.0017
…
224/240 [===========================>..] - ETA: 0s
240/240 [==============================] - 1s 2ms/step
Test score: 0.00023869992000982165, mse: 0.00023869992000982165
Creating stateless model with layers 4, output_dim 60, optimizer adam, dropout 0.2
input_shape (110, 6), output 5
Adding the first LSTM layers
Adding additional LSTM layers 3
Adding additional LSTM layers 2
Adding additional LSTM layers 1
_________________________________________________________________
Layer (type)                 Output Shape              Param #   
=================================================================
lstm_8 (LSTM)                (None, 110, 60)           16080     
_________________________________________________________________
dropout_8 (Dropout)          (None, 110, 60)           0         
_________________________________________________________________
lstm_9 (LSTM)                (None, 110, 60)           29040     
_________________________________________________________________
dropout_9 (Dropout)          (None, 110, 60)           0         
_________________________________________________________________
lstm_10 (LSTM)               (None, 110, 60)           29040     
_________________________________________________________________
dropout_10 (Dropout)         (None, 110, 60)           0         
_________________________________________________________________
lstm_11 (LSTM)               (None, 60)                29040     
_________________________________________________________________
dropout_11 (Dropout)         (None, 60)                0         
_________________________________________________________________
dense_4 (Dense)              (None, 5)                 305       
_________________________________________________________________
activation_4 (Activation)    (None, 5)                 0         
=================================================================
Total params: 103,505
Trainable params: 103,505
Non-trainable params: 0
_________________________________________________________________
None
Train on 958 samples, validate on 240 samples
Epoch 1/100

 32/958 [>.............................] - ETA: 1:34 - loss: 0.0021 - mean_squared_error: 0.0021
 64/958 [=>............................] - ETA: 54s - loss: 0.0018 - mean_squared_error: 0.0018 
…
224/240 [===========================>..] - ETA: 0s
240/240 [==============================] - 1s 5ms/step
Test score: 0.00032465269711489476, mse: 0.00032465269711489476
Creating stateless model with layers 4, output_dim 50, optimizer adam, dropout 0.3
input_shape (110, 6), output 5
Adding the first LSTM layers
Adding additional LSTM layers 3
Adding additional LSTM layers 2
Adding additional LSTM layers 1
_________________________________________________________________
Layer (type)                 Output Shape              Param #   
=================================================================
lstm_12 (LSTM)               (None, 110, 50)           11400     
_________________________________________________________________
dropout_12 (Dropout)         (None, 110, 50)           0         
_________________________________________________________________
lstm_13 (LSTM)               (None, 110, 50)           20200     
_________________________________________________________________
dropout_13 (Dropout)         (None, 110, 50)           0         
_________________________________________________________________
lstm_14 (LSTM)               (None, 110, 50)           20200     
_________________________________________________________________
dropout_14 (Dropout)         (None, 110, 50)           0         
_________________________________________________________________
lstm_15 (LSTM)               (None, 50)                20200     
_________________________________________________________________
dropout_15 (Dropout)         (None, 50)                0         
_________________________________________________________________
dense_5 (Dense)              (None, 5)                 255       
_________________________________________________________________
activation_5 (Activation)    (None, 5)                 0         
=================================================================
Total params: 72,255
Trainable params: 72,255
Non-trainable params: 0
_________________________________________________________________
None
Train on 958 samples, validate on 240 samples
Epoch 1/150

128/958 [===>..........................] - ETA: 23s - loss: 0.0021 - mean_squared_error: 0.0021
256/958 [=======>......................] - ETA: 11s - loss: 0.0036 - mean_squared_error: 0.0036
…
958/958 [==============================] - 6s 6ms/step - loss: 7.5804e-04 - mean_squared_error: 7.5804e-04 - val_loss: 4.6238e-04 - val_mean_squared_error: 4.6238e-04

128/240 [===============>..............] - ETA: 0s
240/240 [==============================] - 0s 1ms/step
Test score: 0.00046238344705974065, mse: 0.00046238344705974065
Creating stateless model with layers 2, output_dim 256, optimizer adam, dropout 0.4
input_shape (110, 6), output 5
Adding the first LSTM layers
Adding additional LSTM layers 1
_________________________________________________________________
Layer (type)                 Output Shape              Param #   
=================================================================
lstm_24 (LSTM)               (None, 110, 256)          269312    
_________________________________________________________________
dropout_24 (Dropout)         (None, 110, 256)          0         
_________________________________________________________________
lstm_25 (LSTM)               (None, 256)               525312    
_________________________________________________________________
dropout_25 (Dropout)         (None, 256)               0         
_________________________________________________________________
dense_8 (Dense)              (None, 5)                 1285      
_________________________________________________________________
activation_8 (Activation)    (None, 5)                 0         
=================================================================
Total params: 795,909
Trainable params: 795,909
Non-trainable params: 0
_________________________________________________________________
None
Train on 958 samples, validate on 240 samples
Epoch 1/150

 32/958 [>.............................] - ETA: 1:28 - loss: 0.0020 - mean_squared_error: 0.0020
 64/958 [=>............................] - ETA: 47s - loss: 0.0016 - mean_squared_error: 0.0016 
…
