…
  60: 
Loading dataset for 00701
historical data is loading from TBrain_Round2_DataSet_20180511/tetfp.csv
set look back to 13 for stock 701
Creating stateless model with layers 4, output_dim 256, optimizer adam, dropout 0.3
input_shape (13, 6), output 5
Adding the first LSTM layers
Adding additional LSTM layers 3
Adding additional LSTM layers 2
Adding additional LSTM layers 1
_________________________________________________________________
Layer (type)                 Output Shape              Param #   
=================================================================
lstm_1 (LSTM)                (None, 13, 256)           269312    
_________________________________________________________________
dropout_1 (Dropout)          (None, 13, 256)           0         
_________________________________________________________________
lstm_2 (LSTM)                (None, 13, 256)           525312    
_________________________________________________________________
dropout_2 (Dropout)          (None, 13, 256)           0         
_________________________________________________________________
lstm_3 (LSTM)                (None, 13, 256)           525312    
_________________________________________________________________
dropout_3 (Dropout)          (None, 13, 256)           0         
_________________________________________________________________
lstm_4 (LSTM)                (None, 256)               525312    
_________________________________________________________________
dropout_4 (Dropout)          (None, 256)               0         
_________________________________________________________________
dense_1 (Dense)              (None, 5)                 1285      
_________________________________________________________________
activation_1 (Activation)    (None, 5)                 0         
=================================================================
Total params: 1,846,533
Trainable params: 1,846,533
Non-trainable params: 0
_________________________________________________________________
None
Train on 132 samples, validate on 30 samples
Epoch 1/50

128/132 [============================>.] - ETA: 0s - loss: 6.3917e-04 - mean_squared_error: 6.3917e-04
132/132 [==============================] - 4s 27ms/step - loss: 6.2163e-04 - mean_squared_error: 6.2163e-04 - val_loss: 5.6997e-04 - val_mean_squared_error: 5.6997e-04
…
132/132 [==============================] - 0s 358us/step - loss: 2.5827e-04 - mean_squared_error: 2.5827e-04 - val_loss: 5.5235e-05 - val_mean_squared_error: 5.5235e-05

30/30 [==============================] - 0s 179us/step
Test score: 5.523547588381916e-05, mse: 5.523547588381916e-05
Creating stateless model with layers 2, output_dim 60, optimizer rmsprop, dropout 0.4
input_shape (13, 6), output 5
Adding the first LSTM layers
Adding additional LSTM layers 1
_________________________________________________________________
Layer (type)                 Output Shape              Param #   
=================================================================
lstm_6 (LSTM)                (None, 13, 60)            16080     
_________________________________________________________________
dropout_6 (Dropout)          (None, 13, 60)            0         
_________________________________________________________________
lstm_7 (LSTM)                (None, 60)                29040     
_________________________________________________________________
dropout_7 (Dropout)          (None, 60)                0         
_________________________________________________________________
dense_3 (Dense)              (None, 5)                 305       
_________________________________________________________________
activation_3 (Activation)    (None, 5)                 0         
=================================================================
Total params: 45,425
Trainable params: 45,425
Non-trainable params: 0
_________________________________________________________________
None
Train on 132 samples, validate on 30 samples
Epoch 1/200

 32/132 [======>.......................] - ETA: 4s - loss: 6.5957e-04 - mean_squared_error: 6.5957e-04
 96/132 [====================>.........] - ETA: 0s - loss: 7.2890e-04 - mean_squared_error: 7.2890e-04
…
132/132 [==============================] - 0s 2ms/step - loss: 2.0199e-04 - mean_squared_error: 2.0199e-04 - val_loss: 6.7024e-05 - val_mean_squared_error: 6.7024e-05

30/30 [==============================] - 0s 399us/step
Test score: 6.702427344862372e-05, mse: 6.702427344862372e-05
Creating stateless model with layers 4, output_dim 60, optimizer adam, dropout 0.2
input_shape (13, 6), output 5
Adding the first LSTM layers
Adding additional LSTM layers 3
Adding additional LSTM layers 2
Adding additional LSTM layers 1
_________________________________________________________________
Layer (type)                 Output Shape              Param #   
=================================================================
lstm_8 (LSTM)                (None, 13, 60)            16080     
_________________________________________________________________
dropout_8 (Dropout)          (None, 13, 60)            0         
_________________________________________________________________
lstm_9 (LSTM)                (None, 13, 60)            29040     
_________________________________________________________________
dropout_9 (Dropout)          (None, 13, 60)            0         
_________________________________________________________________
lstm_10 (LSTM)               (None, 13, 60)            29040     
_________________________________________________________________
dropout_10 (Dropout)         (None, 13, 60)            0         
_________________________________________________________________
lstm_11 (LSTM)               (None, 60)                29040     
_________________________________________________________________
dropout_11 (Dropout)         (None, 60)                0         
_________________________________________________________________
dense_4 (Dense)              (None, 5)                 305       
_________________________________________________________________
activation_4 (Activation)    (None, 5)                 0         
=================================================================
Total params: 103,505
Trainable params: 103,505
Non-trainable params: 0
_________________________________________________________________
None
Train on 132 samples, validate on 30 samples
Epoch 1/100

 32/132 [======>.......................] - ETA: 8s - loss: 4.1495e-04 - mean_squared_error: 4.1495e-04
 64/132 [=============>................] - ETA: 3s - loss: 2.8134e-04 - mean_squared_error: 2.8134e-04
…
132/132 [==============================] - 0s 3ms/step - loss: 2.0529e-04 - mean_squared_error: 2.0529e-04 - val_loss: 8.2767e-05 - val_mean_squared_error: 8.2767e-05

30/30 [==============================] - 0s 745us/step
Test score: 8.276693552033976e-05, mse: 8.276693552033976e-05
Creating stateless model with layers 4, output_dim 50, optimizer adam, dropout 0.3
input_shape (13, 6), output 5
Adding the first LSTM layers
Adding additional LSTM layers 3
Adding additional LSTM layers 2
Adding additional LSTM layers 1
_________________________________________________________________
Layer (type)                 Output Shape              Param #   
=================================================================
lstm_12 (LSTM)               (None, 13, 50)            11400     
_________________________________________________________________
dropout_12 (Dropout)         (None, 13, 50)            0         
_________________________________________________________________
lstm_13 (LSTM)               (None, 13, 50)            20200     
_________________________________________________________________
dropout_13 (Dropout)         (None, 13, 50)            0         
_________________________________________________________________
lstm_14 (LSTM)               (None, 13, 50)            20200     
_________________________________________________________________
dropout_14 (Dropout)         (None, 13, 50)            0         
_________________________________________________________________
lstm_15 (LSTM)               (None, 50)                20200     
_________________________________________________________________
dropout_15 (Dropout)         (None, 50)                0         
_________________________________________________________________
dense_5 (Dense)              (None, 5)                 255       
_________________________________________________________________
activation_5 (Activation)    (None, 5)                 0         
=================================================================
Total params: 72,255
Trainable params: 72,255
Non-trainable params: 0
_________________________________________________________________
None
Train on 132 samples, validate on 30 samples
Epoch 1/150

128/132 [============================>.] - ETA: 0s - loss: 6.6105e-04 - mean_squared_error: 6.6105e-04
132/132 [==============================] - 4s 27ms/step - loss: 6.4339e-04 - mean_squared_error: 6.4339e-04 - val_loss: 3.5069e-04 - val_mean_squared_error: 3.5069e-04
…
132/132 [==============================] - 0s 1ms/step - loss: 3.7246e-04 - mean_squared_error: 3.7246e-04 - val_loss: 1.8596e-04 - val_mean_squared_error: 1.8596e-04

30/30 [==============================] - 0s 721us/step
Test score: 0.00018595739675220102, mse: 0.00018595739675220102
Creating stateless model with layers 2, output_dim 256, optimizer adam, dropout 0.4
input_shape (13, 6), output 5
Adding the first LSTM layers
Adding additional LSTM layers 1
_________________________________________________________________
Layer (type)                 Output Shape              Param #   
=================================================================
lstm_24 (LSTM)               (None, 13, 256)           269312    
_________________________________________________________________
dropout_24 (Dropout)         (None, 13, 256)           0         
_________________________________________________________________
lstm_25 (LSTM)               (None, 256)               525312    
_________________________________________________________________
dropout_25 (Dropout)         (None, 256)               0         
_________________________________________________________________
dense_8 (Dense)              (None, 5)                 1285      
_________________________________________________________________
activation_8 (Activation)    (None, 5)                 0         
=================================================================
Total params: 795,909
Trainable params: 795,909
Non-trainable params: 0
_________________________________________________________________
None
Train on 132 samples, validate on 30 samples
Epoch 1/150

 32/132 [======>.......................] - ETA: 9s - loss: 5.3284e-04 - mean_squared_error: 5.3284e-04
 96/132 [====================>.........] - ETA: 1s - loss: 5.6354e-04 - mean_squared_error: 5.6354e-04
…
