…
  60: 
Loading dataset for 0056
historical data is loading from TBrain_Round2_DataSet_20180511/tetfp.csv
set look back to 70 for stock 56
Creating stateless model with layers 4, output_dim 256, optimizer adam, dropout 0.3
input_shape (70, 6), output 5
Adding the first LSTM layers
Adding additional LSTM layers 3
Adding additional LSTM layers 2
Adding additional LSTM layers 1
_________________________________________________________________
Layer (type)                 Output Shape              Param #   
=================================================================
lstm_1 (LSTM)                (None, 70, 256)           269312    
_________________________________________________________________
dropout_1 (Dropout)          (None, 70, 256)           0         
_________________________________________________________________
lstm_2 (LSTM)                (None, 70, 256)           525312    
_________________________________________________________________
dropout_2 (Dropout)          (None, 70, 256)           0         
_________________________________________________________________
lstm_3 (LSTM)                (None, 70, 256)           525312    
_________________________________________________________________
dropout_3 (Dropout)          (None, 70, 256)           0         
_________________________________________________________________
lstm_4 (LSTM)                (None, 256)               525312    
_________________________________________________________________
dropout_4 (Dropout)          (None, 256)               0         
_________________________________________________________________
dense_1 (Dense)              (None, 5)                 1285      
_________________________________________________________________
activation_1 (Activation)    (None, 5)                 0         
=================================================================
Total params: 1,846,533
Trainable params: 1,846,533
Non-trainable params: 0
_________________________________________________________________
None
Train on 999 samples, validate on 240 samples
Epoch 1/50

128/999 [==>...........................] - ETA: 22s - loss: 0.0012 - mean_squared_error: 0.0012
256/999 [======>.......................] - ETA: 11s - loss: 0.0020 - mean_squared_error: 0.0020
…
999/999 [==============================] - 1s 903us/step - loss: 2.9413e-04 - mean_squared_error: 2.9413e-04 - val_loss: 1.4595e-04 - val_mean_squared_error: 1.4595e-04

128/240 [===============>..............] - ETA: 0s
240/240 [==============================] - 0s 208us/step
Test score: 0.00014594693687589217, mse: 0.00014594693687589217
Creating stateless model with layers 2, output_dim 60, optimizer rmsprop, dropout 0.4
input_shape (70, 6), output 5
Adding the first LSTM layers
Adding additional LSTM layers 1
_________________________________________________________________
Layer (type)                 Output Shape              Param #   
=================================================================
lstm_6 (LSTM)                (None, 70, 60)            16080     
_________________________________________________________________
dropout_6 (Dropout)          (None, 70, 60)            0         
_________________________________________________________________
lstm_7 (LSTM)                (None, 60)                29040     
_________________________________________________________________
dropout_7 (Dropout)          (None, 60)                0         
_________________________________________________________________
dense_3 (Dense)              (None, 5)                 305       
_________________________________________________________________
activation_3 (Activation)    (None, 5)                 0         
=================================================================
Total params: 45,425
Trainable params: 45,425
Non-trainable params: 0
_________________________________________________________________
None
Train on 999 samples, validate on 240 samples
Epoch 1/200

 32/999 [..............................] - ETA: 45s - loss: 0.0017 - mean_squared_error: 0.0017
 64/999 [>.............................] - ETA: 25s - loss: 0.0014 - mean_squared_error: 0.0014
…
224/240 [===========================>..] - ETA: 0s
240/240 [==============================] - 0s 2ms/step
Test score: 0.00013914785182957227, mse: 0.00013914785182957227
Creating stateless model with layers 4, output_dim 60, optimizer adam, dropout 0.2
input_shape (70, 6), output 5
Adding the first LSTM layers
Adding additional LSTM layers 3
Adding additional LSTM layers 2
Adding additional LSTM layers 1
_________________________________________________________________
Layer (type)                 Output Shape              Param #   
=================================================================
lstm_8 (LSTM)                (None, 70, 60)            16080     
_________________________________________________________________
dropout_8 (Dropout)          (None, 70, 60)            0         
_________________________________________________________________
lstm_9 (LSTM)                (None, 70, 60)            29040     
_________________________________________________________________
dropout_9 (Dropout)          (None, 70, 60)            0         
_________________________________________________________________
lstm_10 (LSTM)               (None, 70, 60)            29040     
_________________________________________________________________
dropout_10 (Dropout)         (None, 70, 60)            0         
_________________________________________________________________
lstm_11 (LSTM)               (None, 60)                29040     
_________________________________________________________________
dropout_11 (Dropout)         (None, 60)                0         
_________________________________________________________________
dense_4 (Dense)              (None, 5)                 305       
_________________________________________________________________
activation_4 (Activation)    (None, 5)                 0         
=================================================================
Total params: 103,505
Trainable params: 103,505
Non-trainable params: 0
_________________________________________________________________
None
Train on 999 samples, validate on 240 samples
Epoch 1/100

 32/999 [..............................] - ETA: 1:32 - loss: 0.0017 - mean_squared_error: 0.0017
 64/999 [>.............................] - ETA: 50s - loss: 0.0013 - mean_squared_error: 0.0013 
…
224/240 [===========================>..] - ETA: 0s
240/240 [==============================] - 1s 3ms/step
Test score: 0.00020391588962714497, mse: 0.00020391588962714497
Creating stateless model with layers 4, output_dim 50, optimizer adam, dropout 0.3
input_shape (70, 6), output 5
Adding the first LSTM layers
Adding additional LSTM layers 3
Adding additional LSTM layers 2
Adding additional LSTM layers 1
_________________________________________________________________
Layer (type)                 Output Shape              Param #   
=================================================================
lstm_12 (LSTM)               (None, 70, 50)            11400     
_________________________________________________________________
dropout_12 (Dropout)         (None, 70, 50)            0         
_________________________________________________________________
lstm_13 (LSTM)               (None, 70, 50)            20200     
_________________________________________________________________
dropout_13 (Dropout)         (None, 70, 50)            0         
_________________________________________________________________
lstm_14 (LSTM)               (None, 70, 50)            20200     
_________________________________________________________________
dropout_14 (Dropout)         (None, 70, 50)            0         
_________________________________________________________________
lstm_15 (LSTM)               (None, 50)                20200     
_________________________________________________________________
dropout_15 (Dropout)         (None, 50)                0         
_________________________________________________________________
dense_5 (Dense)              (None, 5)                 255       
_________________________________________________________________
activation_5 (Activation)    (None, 5)                 0         
=================================================================
Total params: 72,255
Trainable params: 72,255
Non-trainable params: 0
_________________________________________________________________
None
Train on 999 samples, validate on 240 samples
Epoch 1/150

128/999 [==>...........................] - ETA: 22s - loss: 0.0013 - mean_squared_error: 0.0013
256/999 [======>.......................] - ETA: 10s - loss: 0.0019 - mean_squared_error: 0.0019
…
999/999 [==============================] - 4s 4ms/step - loss: 5.9847e-04 - mean_squared_error: 5.9847e-04 - val_loss: 2.5340e-04 - val_mean_squared_error: 2.5340e-04

128/240 [===============>..............] - ETA: 0s
240/240 [==============================] - 0s 805us/step
Test score: 0.0002534044305017839, mse: 0.0002534044305017839
Creating stateless model with layers 2, output_dim 256, optimizer adam, dropout 0.4
input_shape (70, 6), output 5
Adding the first LSTM layers
Adding additional LSTM layers 1
_________________________________________________________________
Layer (type)                 Output Shape              Param #   
=================================================================
lstm_24 (LSTM)               (None, 70, 256)           269312    
_________________________________________________________________
dropout_24 (Dropout)         (None, 70, 256)           0         
_________________________________________________________________
lstm_25 (LSTM)               (None, 256)               525312    
_________________________________________________________________
dropout_25 (Dropout)         (None, 256)               0         
_________________________________________________________________
dense_8 (Dense)              (None, 5)                 1285      
_________________________________________________________________
activation_8 (Activation)    (None, 5)                 0         
=================================================================
Total params: 795,909
Trainable params: 795,909
Non-trainable params: 0
_________________________________________________________________
None
Train on 999 samples, validate on 240 samples
Epoch 1/150

 32/999 [..............................] - ETA: 1:30 - loss: 0.0017 - mean_squared_error: 0.0017
 64/999 [>.............................] - ETA: 46s - loss: 0.0013 - mean_squared_error: 0.0013 
…
