…
  60: 
Loading dataset for 00713
historical data is loading from TBrain_Round2_DataSet_20180511/tetfp.csv
set look back to 6 for stock 713
Creating stateless model with layers 4, output_dim 256, optimizer adam, dropout 0.3
input_shape (6, 6), output 5
Adding the first LSTM layers
Adding additional LSTM layers 3
Adding additional LSTM layers 2
Adding additional LSTM layers 1
_________________________________________________________________
Layer (type)                 Output Shape              Param #   
=================================================================
lstm_1 (LSTM)                (None, 6, 256)            269312    
_________________________________________________________________
dropout_1 (Dropout)          (None, 6, 256)            0         
_________________________________________________________________
lstm_2 (LSTM)                (None, 6, 256)            525312    
_________________________________________________________________
dropout_2 (Dropout)          (None, 6, 256)            0         
_________________________________________________________________
lstm_3 (LSTM)                (None, 6, 256)            525312    
_________________________________________________________________
dropout_3 (Dropout)          (None, 6, 256)            0         
_________________________________________________________________
lstm_4 (LSTM)                (None, 256)               525312    
_________________________________________________________________
dropout_4 (Dropout)          (None, 256)               0         
_________________________________________________________________
dense_1 (Dense)              (None, 5)                 1285      
_________________________________________________________________
activation_1 (Activation)    (None, 5)                 0         
=================================================================
Total params: 1,846,533
Trainable params: 1,846,533
Non-trainable params: 0
_________________________________________________________________
None
Train on 110 samples, validate on 30 samples
Epoch 1/50

110/110 [==============================] - 3s 30ms/step - loss: 2.6444e-04 - mean_squared_error: 2.6444e-04 - val_loss: 2.0117e-04 - val_mean_squared_error: 2.0117e-04
…
110/110 [==============================] - 0s 142us/step - loss: 1.6018e-04 - mean_squared_error: 1.6018e-04 - val_loss: 1.0182e-04 - val_mean_squared_error: 1.0182e-04

30/30 [==============================] - 0s 114us/step
Test score: 0.00010181878315052018, mse: 0.00010181878315052018
Creating stateless model with layers 2, output_dim 60, optimizer rmsprop, dropout 0.4
input_shape (6, 6), output 5
Adding the first LSTM layers
Adding additional LSTM layers 1
_________________________________________________________________
Layer (type)                 Output Shape              Param #   
=================================================================
lstm_6 (LSTM)                (None, 6, 60)             16080     
_________________________________________________________________
dropout_6 (Dropout)          (None, 6, 60)             0         
_________________________________________________________________
lstm_7 (LSTM)                (None, 60)                29040     
_________________________________________________________________
dropout_7 (Dropout)          (None, 60)                0         
_________________________________________________________________
dense_3 (Dense)              (None, 5)                 305       
_________________________________________________________________
activation_3 (Activation)    (None, 5)                 0         
=================================================================
Total params: 45,425
Trainable params: 45,425
Non-trainable params: 0
_________________________________________________________________
None
Train on 110 samples, validate on 30 samples
Epoch 1/200

 32/110 [=======>......................] - ETA: 3s - loss: 3.5039e-04 - mean_squared_error: 3.5039e-04
110/110 [==============================] - 2s 14ms/step - loss: 4.3389e-04 - mean_squared_error: 4.3389e-04 - val_loss: 1.6397e-04 - val_mean_squared_error: 1.6397e-04
…
110/110 [==============================] - 0s 843us/step - loss: 1.0095e-04 - mean_squared_error: 1.0095e-04 - val_loss: 8.3468e-05 - val_mean_squared_error: 8.3468e-05

30/30 [==============================] - 0s 178us/step
Test score: 8.346822869498283e-05, mse: 8.346822869498283e-05
Creating stateless model with layers 4, output_dim 60, optimizer adam, dropout 0.2
input_shape (6, 6), output 5
Adding the first LSTM layers
Adding additional LSTM layers 3
Adding additional LSTM layers 2
Adding additional LSTM layers 1
_________________________________________________________________
Layer (type)                 Output Shape              Param #   
=================================================================
lstm_8 (LSTM)                (None, 6, 60)             16080     
_________________________________________________________________
dropout_8 (Dropout)          (None, 6, 60)             0         
_________________________________________________________________
lstm_9 (LSTM)                (None, 6, 60)             29040     
_________________________________________________________________
dropout_9 (Dropout)          (None, 6, 60)             0         
_________________________________________________________________
lstm_10 (LSTM)               (None, 6, 60)             29040     
_________________________________________________________________
dropout_10 (Dropout)         (None, 6, 60)             0         
_________________________________________________________________
lstm_11 (LSTM)               (None, 60)                29040     
_________________________________________________________________
dropout_11 (Dropout)         (None, 60)                0         
_________________________________________________________________
dense_4 (Dense)              (None, 5)                 305       
_________________________________________________________________
activation_4 (Activation)    (None, 5)                 0         
=================================================================
Total params: 103,505
Trainable params: 103,505
Non-trainable params: 0
_________________________________________________________________
None
Train on 110 samples, validate on 30 samples
Epoch 1/100

 32/110 [=======>......................] - ETA: 6s - loss: 2.3138e-04 - mean_squared_error: 2.3138e-04
 96/110 [=========================>....] - ETA: 0s - loss: 3.0587e-04 - mean_squared_error: 3.0587e-04
…
110/110 [==============================] - 0s 2ms/step - loss: 1.2554e-04 - mean_squared_error: 1.2554e-04 - val_loss: 7.4151e-05 - val_mean_squared_error: 7.4151e-05

30/30 [==============================] - 0s 404us/step
Test score: 7.415098662022501e-05, mse: 7.415098662022501e-05
Creating stateless model with layers 4, output_dim 50, optimizer adam, dropout 0.3
input_shape (6, 6), output 5
Adding the first LSTM layers
Adding additional LSTM layers 3
Adding additional LSTM layers 2
Adding additional LSTM layers 1
_________________________________________________________________
Layer (type)                 Output Shape              Param #   
=================================================================
lstm_12 (LSTM)               (None, 6, 50)             11400     
_________________________________________________________________
dropout_12 (Dropout)         (None, 6, 50)             0         
_________________________________________________________________
lstm_13 (LSTM)               (None, 6, 50)             20200     
_________________________________________________________________
dropout_13 (Dropout)         (None, 6, 50)             0         
_________________________________________________________________
lstm_14 (LSTM)               (None, 6, 50)             20200     
_________________________________________________________________
dropout_14 (Dropout)         (None, 6, 50)             0         
_________________________________________________________________
lstm_15 (LSTM)               (None, 50)                20200     
_________________________________________________________________
dropout_15 (Dropout)         (None, 50)                0         
_________________________________________________________________
dense_5 (Dense)              (None, 5)                 255       
_________________________________________________________________
activation_5 (Activation)    (None, 5)                 0         
=================================================================
Total params: 72,255
Trainable params: 72,255
Non-trainable params: 0
_________________________________________________________________
None
Train on 110 samples, validate on 30 samples
Epoch 1/150

110/110 [==============================] - 3s 30ms/step - loss: 2.6207e-04 - mean_squared_error: 2.6207e-04 - val_loss: 1.5582e-04 - val_mean_squared_error: 1.5582e-04
…
110/110 [==============================] - 0s 496us/step - loss: 2.4733e-04 - mean_squared_error: 2.4733e-04 - val_loss: 1.4184e-04 - val_mean_squared_error: 1.4184e-04

30/30 [==============================] - 0s 340us/step
Test score: 0.00014184201427269727, mse: 0.00014184201427269727
Creating stateless model with layers 2, output_dim 256, optimizer adam, dropout 0.4
input_shape (6, 6), output 5
Adding the first LSTM layers
Adding additional LSTM layers 1
_________________________________________________________________
Layer (type)                 Output Shape              Param #   
=================================================================
lstm_24 (LSTM)               (None, 6, 256)            269312    
_________________________________________________________________
dropout_24 (Dropout)         (None, 6, 256)            0         
_________________________________________________________________
lstm_25 (LSTM)               (None, 256)               525312    
_________________________________________________________________
dropout_25 (Dropout)         (None, 256)               0         
_________________________________________________________________
dense_8 (Dense)              (None, 5)                 1285      
_________________________________________________________________
activation_8 (Activation)    (None, 5)                 0         
=================================================================
Total params: 795,909
Trainable params: 795,909
Non-trainable params: 0
_________________________________________________________________
None
Train on 110 samples, validate on 30 samples
Epoch 1/150

 32/110 [=======>......................] - ETA: 6s - loss: 2.4942e-04 - mean_squared_error: 2.4942e-04
 96/110 [=========================>....] - ETA: 0s - loss: 3.2267e-04 - mean_squared_error: 3.2267e-04
…
