…
  60: 
Loading dataset for 00690
historical data is loading from TBrain_Round2_DataSet_20180511/tetfp.csv
set look back to 18 for stock 690
Creating stateless model with layers 4, output_dim 256, optimizer adam, dropout 0.3
input_shape (18, 6), output 5
Adding the first LSTM layers
Adding additional LSTM layers 3
Adding additional LSTM layers 2
Adding additional LSTM layers 1
_________________________________________________________________
Layer (type)                 Output Shape              Param #   
=================================================================
lstm_1 (LSTM)                (None, 18, 256)           269312    
_________________________________________________________________
dropout_1 (Dropout)          (None, 18, 256)           0         
_________________________________________________________________
lstm_2 (LSTM)                (None, 18, 256)           525312    
_________________________________________________________________
dropout_2 (Dropout)          (None, 18, 256)           0         
_________________________________________________________________
lstm_3 (LSTM)                (None, 18, 256)           525312    
_________________________________________________________________
dropout_3 (Dropout)          (None, 18, 256)           0         
_________________________________________________________________
lstm_4 (LSTM)                (None, 256)               525312    
_________________________________________________________________
dropout_4 (Dropout)          (None, 256)               0         
_________________________________________________________________
dense_1 (Dense)              (None, 5)                 1285      
_________________________________________________________________
activation_1 (Activation)    (None, 5)                 0         
=================================================================
Total params: 1,846,533
Trainable params: 1,846,533
Non-trainable params: 0
_________________________________________________________________
None
Train on 223 samples, validate on 30 samples
Epoch 1/50

128/223 [================>.............] - ETA: 2s - loss: 5.5713e-04 - mean_squared_error: 5.5713e-04
223/223 [==============================] - 4s 16ms/step - loss: 9.9941e-04 - mean_squared_error: 9.9941e-04 - val_loss: 5.3804e-04 - val_mean_squared_error: 5.3804e-04
…
223/223 [==============================] - 0s 295us/step - loss: 1.9245e-04 - mean_squared_error: 1.9245e-04 - val_loss: 1.0086e-04 - val_mean_squared_error: 1.0086e-04

30/30 [==============================] - 0s 233us/step
Test score: 0.0001008554536383599, mse: 0.0001008554536383599
Creating stateless model with layers 2, output_dim 60, optimizer rmsprop, dropout 0.4
input_shape (18, 6), output 5
Adding the first LSTM layers
Adding additional LSTM layers 1
_________________________________________________________________
Layer (type)                 Output Shape              Param #   
=================================================================
lstm_6 (LSTM)                (None, 18, 60)            16080     
_________________________________________________________________
dropout_6 (Dropout)          (None, 18, 60)            0         
_________________________________________________________________
lstm_7 (LSTM)                (None, 60)                29040     
_________________________________________________________________
dropout_7 (Dropout)          (None, 60)                0         
_________________________________________________________________
dense_3 (Dense)              (None, 5)                 305       
_________________________________________________________________
activation_3 (Activation)    (None, 5)                 0         
=================================================================
Total params: 45,425
Trainable params: 45,425
Non-trainable params: 0
_________________________________________________________________
None
Train on 223 samples, validate on 30 samples
Epoch 1/200

 32/223 [===>..........................] - ETA: 8s - loss: 0.0013 - mean_squared_error: 0.0013
 64/223 [=======>......................] - ETA: 3s - loss: 0.0013 - mean_squared_error: 0.0013
…
223/223 [==============================] - 0s 2ms/step - loss: 1.9553e-04 - mean_squared_error: 1.9553e-04 - val_loss: 1.1128e-04 - val_mean_squared_error: 1.1128e-04

30/30 [==============================] - 0s 505us/step
Test score: 0.00011127865582238883, mse: 0.00011127865582238883
Creating stateless model with layers 4, output_dim 60, optimizer adam, dropout 0.2
input_shape (18, 6), output 5
Adding the first LSTM layers
Adding additional LSTM layers 3
Adding additional LSTM layers 2
Adding additional LSTM layers 1
_________________________________________________________________
Layer (type)                 Output Shape              Param #   
=================================================================
lstm_8 (LSTM)                (None, 18, 60)            16080     
_________________________________________________________________
dropout_8 (Dropout)          (None, 18, 60)            0         
_________________________________________________________________
lstm_9 (LSTM)                (None, 18, 60)            29040     
_________________________________________________________________
dropout_9 (Dropout)          (None, 18, 60)            0         
_________________________________________________________________
lstm_10 (LSTM)               (None, 18, 60)            29040     
_________________________________________________________________
dropout_10 (Dropout)         (None, 18, 60)            0         
_________________________________________________________________
lstm_11 (LSTM)               (None, 60)                29040     
_________________________________________________________________
dropout_11 (Dropout)         (None, 60)                0         
_________________________________________________________________
dense_4 (Dense)              (None, 5)                 305       
_________________________________________________________________
activation_4 (Activation)    (None, 5)                 0         
=================================================================
Total params: 103,505
Trainable params: 103,505
Non-trainable params: 0
_________________________________________________________________
None
Train on 223 samples, validate on 30 samples
Epoch 1/100

 32/223 [===>..........................] - ETA: 16s - loss: 2.7803e-04 - mean_squared_error: 2.7803e-04
 64/223 [=======>......................] - ETA: 7s - loss: 3.7551e-04 - mean_squared_error: 3.7551e-04 
…
223/223 [==============================] - 1s 4ms/step - loss: 2.0357e-04 - mean_squared_error: 2.0357e-04 - val_loss: 1.1030e-04 - val_mean_squared_error: 1.1030e-04

30/30 [==============================] - 0s 904us/step
Test score: 0.00011030277528334409, mse: 0.00011030277528334409
Creating stateless model with layers 4, output_dim 50, optimizer adam, dropout 0.3
input_shape (18, 6), output 5
Adding the first LSTM layers
Adding additional LSTM layers 3
Adding additional LSTM layers 2
Adding additional LSTM layers 1
_________________________________________________________________
Layer (type)                 Output Shape              Param #   
=================================================================
lstm_12 (LSTM)               (None, 18, 50)            11400     
_________________________________________________________________
dropout_12 (Dropout)         (None, 18, 50)            0         
_________________________________________________________________
lstm_13 (LSTM)               (None, 18, 50)            20200     
_________________________________________________________________
dropout_13 (Dropout)         (None, 18, 50)            0         
_________________________________________________________________
lstm_14 (LSTM)               (None, 18, 50)            20200     
_________________________________________________________________
dropout_14 (Dropout)         (None, 18, 50)            0         
_________________________________________________________________
lstm_15 (LSTM)               (None, 50)                20200     
_________________________________________________________________
dropout_15 (Dropout)         (None, 50)                0         
_________________________________________________________________
dense_5 (Dense)              (None, 5)                 255       
_________________________________________________________________
activation_5 (Activation)    (None, 5)                 0         
=================================================================
Total params: 72,255
Trainable params: 72,255
Non-trainable params: 0
_________________________________________________________________
None
Train on 223 samples, validate on 30 samples
Epoch 1/150

128/223 [================>.............] - ETA: 2s - loss: 5.6635e-04 - mean_squared_error: 5.6635e-04
223/223 [==============================] - 4s 16ms/step - loss: 9.2373e-04 - mean_squared_error: 9.2373e-04 - val_loss: 3.8484e-04 - val_mean_squared_error: 3.8484e-04
…
223/223 [==============================] - 0s 1ms/step - loss: 3.4893e-04 - mean_squared_error: 3.4893e-04 - val_loss: 2.3432e-04 - val_mean_squared_error: 2.3432e-04

30/30 [==============================] - 0s 919us/step
Test score: 0.00023431607405655086, mse: 0.00023431607405655086
Creating stateless model with layers 2, output_dim 256, optimizer adam, dropout 0.4
input_shape (18, 6), output 5
Adding the first LSTM layers
Adding additional LSTM layers 1
_________________________________________________________________
Layer (type)                 Output Shape              Param #   
=================================================================
lstm_24 (LSTM)               (None, 18, 256)           269312    
_________________________________________________________________
dropout_24 (Dropout)         (None, 18, 256)           0         
_________________________________________________________________
lstm_25 (LSTM)               (None, 256)               525312    
_________________________________________________________________
dropout_25 (Dropout)         (None, 256)               0         
_________________________________________________________________
dense_8 (Dense)              (None, 5)                 1285      
_________________________________________________________________
activation_8 (Activation)    (None, 5)                 0         
=================================================================
Total params: 795,909
Trainable params: 795,909
Non-trainable params: 0
_________________________________________________________________
None
Train on 223 samples, validate on 30 samples
Epoch 1/150

 32/223 [===>..........................] - ETA: 16s - loss: 6.9004e-04 - mean_squared_error: 6.9004e-04
 64/223 [=======>......................] - ETA: 7s - loss: 7.4452e-04 - mean_squared_error: 7.4452e-04 
…
