…
  58:     return {'loss': mse, 'status': STATUS_OK, 'model': regressor}
  59: 
Loading dataset for 006203
historical data is loading from TBrain_Round2_DataSet_20180608/tetfp.csv
set look back to 60 for stock 6203
look_back 60, look_forward 5
Creating CNN model with layers 2, output_dim 128, optimizer adam, dropout 0.5
input_shape (60, 2), output 5
Adding the first Convolution1D layer
Adding additional Convolution1D layers 1
_________________________________________________________________
Layer (type)                 Output Shape              Param #   
=================================================================
conv1d_1 (Conv1D)            (None, 56, 128)           1408      
_________________________________________________________________
dropout_1 (Dropout)          (None, 56, 128)           0         
_________________________________________________________________
conv1d_2 (Conv1D)            (None, 52, 128)           82048     
_________________________________________________________________
dropout_2 (Dropout)          (None, 52, 128)           0         
_________________________________________________________________
flatten_1 (Flatten)          (None, 6656)              0         
_________________________________________________________________
dense_1 (Dense)              (None, 5)                 33285     
_________________________________________________________________
activation_1 (Activation)    (None, 5)                 0         
=================================================================
Total params: 116,741
Trainable params: 116,741
Non-trainable params: 0
_________________________________________________________________
None
Train on 796 samples, validate on 240 samples
Epoch 1/400

128/796 [===>..........................] - ETA: 8s - loss: 0.0042 - mean_squared_error: 0.0042
796/796 [==============================] - 2s 2ms/step - loss: 0.0028 - mean_squared_error: 0.0028 - val_loss: 9.9106e-04 - val_mean_squared_error: 9.9106e-04
…
240/240 [==============================] - 0s 25us/step
Test score: 0.00034912750512982406, mse: 0.00034912750512982406
Creating CNN model with layers 4, output_dim 32, optimizer adam, dropout 0.2
input_shape (60, 2), output 5
Adding the first Convolution1D layer
Adding additional Convolution1D layers 3
Adding additional Convolution1D layers 2
Adding additional Convolution1D layers 1
_________________________________________________________________
Layer (type)                 Output Shape              Param #   
=================================================================
conv1d_3 (Conv1D)            (None, 56, 32)            352       
_________________________________________________________________
dropout_3 (Dropout)          (None, 56, 32)            0         
_________________________________________________________________
conv1d_4 (Conv1D)            (None, 52, 32)            5152      
_________________________________________________________________
dropout_4 (Dropout)          (None, 52, 32)            0         
_________________________________________________________________
conv1d_5 (Conv1D)            (None, 48, 32)            5152      
_________________________________________________________________
dropout_5 (Dropout)          (None, 48, 32)            0         
_________________________________________________________________
conv1d_6 (Conv1D)            (None, 44, 32)            5152      
_________________________________________________________________
dropout_6 (Dropout)          (None, 44, 32)            0         
_________________________________________________________________
flatten_2 (Flatten)          (None, 1408)              0         
_________________________________________________________________
dense_2 (Dense)              (None, 5)                 7045      
_________________________________________________________________
activation_2 (Activation)    (None, 5)                 0         
=================================================================
Total params: 22,853
Trainable params: 22,853
Non-trainable params: 0
_________________________________________________________________
None
Train on 796 samples, validate on 240 samples
Epoch 1/600

128/796 [===>..........................] - ETA: 2s - loss: 0.0052 - mean_squared_error: 0.0052
796/796 [==============================] - 1s 795us/step - loss: 0.0036 - mean_squared_error: 0.0036 - val_loss: 0.0010 - val_mean_squared_error: 0.0010
…
Test score: 0.00044540239420409, mse: 0.00044540239420409
Creating CNN model with layers 6, output_dim 64, optimizer adam, dropout 0.2
input_shape (60, 2), output 5
Adding the first Convolution1D layer
Adding additional Convolution1D layers 5
Adding additional Convolution1D layers 4
Adding additional Convolution1D layers 3
Adding additional Convolution1D layers 2
Adding additional Convolution1D layers 1
_________________________________________________________________
Layer (type)                 Output Shape              Param #   
=================================================================
conv1d_7 (Conv1D)            (None, 56, 64)            704       
_________________________________________________________________
dropout_7 (Dropout)          (None, 56, 64)            0         
_________________________________________________________________
conv1d_8 (Conv1D)            (None, 52, 64)            20544     
_________________________________________________________________
dropout_8 (Dropout)          (None, 52, 64)            0         
_________________________________________________________________
conv1d_9 (Conv1D)            (None, 48, 64)            20544     
_________________________________________________________________
dropout_9 (Dropout)          (None, 48, 64)            0         
_________________________________________________________________
conv1d_10 (Conv1D)           (None, 44, 64)            20544     
_________________________________________________________________
dropout_10 (Dropout)         (None, 44, 64)            0         
_________________________________________________________________
conv1d_11 (Conv1D)           (None, 40, 64)            20544     
_________________________________________________________________
dropout_11 (Dropout)         (None, 40, 64)            0         
_________________________________________________________________
conv1d_12 (Conv1D)           (None, 36, 64)            20544     
_________________________________________________________________
dropout_12 (Dropout)         (None, 36, 64)            0         
_________________________________________________________________
flatten_3 (Flatten)          (None, 2304)              0         
_________________________________________________________________
dense_3 (Dense)              (None, 5)                 11525     
_________________________________________________________________
activation_3 (Activation)    (None, 5)                 0         
=================================================================
Total params: 114,949
Trainable params: 114,949
Non-trainable params: 0
_________________________________________________________________
None
Train on 796 samples, validate on 240 samples
Epoch 1/600

128/796 [===>..........................] - ETA: 4s - loss: 0.0042 - mean_squared_error: 0.0042
640/796 [=======================>......] - ETA: 0s - loss: 0.0040 - mean_squared_error: 0.0040
…
240/240 [==============================] - 0s 30us/step
Test score: 0.0005904714576900006, mse: 0.0005904714576900006
Creating CNN model with layers 4, output_dim 64, optimizer adam, dropout 0.4
input_shape (60, 2), output 5
Adding the first Convolution1D layer
Adding additional Convolution1D layers 3
Adding additional Convolution1D layers 2
Adding additional Convolution1D layers 1
_________________________________________________________________
Layer (type)                 Output Shape              Param #   
=================================================================
conv1d_13 (Conv1D)           (None, 56, 64)            704       
_________________________________________________________________
dropout_13 (Dropout)         (None, 56, 64)            0         
_________________________________________________________________
conv1d_14 (Conv1D)           (None, 52, 64)            20544     
_________________________________________________________________
dropout_14 (Dropout)         (None, 52, 64)            0         
_________________________________________________________________
conv1d_15 (Conv1D)           (None, 48, 64)            20544     
_________________________________________________________________
dropout_15 (Dropout)         (None, 48, 64)            0         
_________________________________________________________________
conv1d_16 (Conv1D)           (None, 44, 64)            20544     
_________________________________________________________________
dropout_16 (Dropout)         (None, 44, 64)            0         
_________________________________________________________________
flatten_4 (Flatten)          (None, 2816)              0         
_________________________________________________________________
dense_4 (Dense)              (None, 5)                 14085     
_________________________________________________________________
activation_4 (Activation)    (None, 5)                 0         
=================================================================
Total params: 76,421
Trainable params: 76,421
Non-trainable params: 0
_________________________________________________________________
None
Train on 796 samples, validate on 240 samples
Epoch 1/400

128/796 [===>..........................] - ETA: 2s - loss: 0.0043 - mean_squared_error: 0.0043
796/796 [==============================] - 1s 872us/step - loss: 0.0036 - mean_squared_error: 0.0036 - val_loss: 0.0014 - val_mean_squared_error: 0.0014
…
Test score: 0.00045430107275024056, mse: 0.00045430107275024056
Creating CNN model with layers 6, output_dim 32, optimizer adam, dropout 0.5
input_shape (60, 2), output 5
Adding the first Convolution1D layer
Adding additional Convolution1D layers 5
Adding additional Convolution1D layers 4
Adding additional Convolution1D layers 3
Adding additional Convolution1D layers 2
Adding additional Convolution1D layers 1
_________________________________________________________________
Layer (type)                 Output Shape              Param #   
=================================================================
conv1d_17 (Conv1D)           (None, 56, 32)            352       
_________________________________________________________________
dropout_17 (Dropout)         (None, 56, 32)            0         
_________________________________________________________________
conv1d_18 (Conv1D)           (None, 52, 32)            5152      
_________________________________________________________________
dropout_18 (Dropout)         (None, 52, 32)            0         
_________________________________________________________________
conv1d_19 (Conv1D)           (None, 48, 32)            5152      
_________________________________________________________________
dropout_19 (Dropout)         (None, 48, 32)            0         
_________________________________________________________________
conv1d_20 (Conv1D)           (None, 44, 32)            5152      
_________________________________________________________________
dropout_20 (Dropout)         (None, 44, 32)            0         
_________________________________________________________________
conv1d_21 (Conv1D)           (None, 40, 32)            5152      
_________________________________________________________________
dropout_21 (Dropout)         (None, 40, 32)            0         
_________________________________________________________________
conv1d_22 (Conv1D)           (None, 36, 32)            5152      
_________________________________________________________________
dropout_22 (Dropout)         (None, 36, 32)            0         
_________________________________________________________________
flatten_5 (Flatten)          (None, 1152)              0         
_________________________________________________________________
dense_5 (Dense)              (None, 5)                 5765      
_________________________________________________________________
activation_5 (Activation)    (None, 5)                 0         
=================================================================
Total params: 31,877
Trainable params: 31,877
Non-trainable params: 0
_________________________________________________________________
None
Train on 796 samples, validate on 240 samples
Epoch 1/800

128/796 [===>..........................] - ETA: 4s - loss: 0.0044 - mean_squared_error: 0.0044
796/796 [==============================] - 1s 1ms/step - loss: 0.0043 - mean_squared_error: 0.0043 - val_loss: 0.0026 - val_mean_squared_error: 0.0026
…
