…
  58:     return {'loss': mse, 'status': STATUS_OK, 'model': regressor}
  59: 
Loading dataset for 00701
historical data is loading from TBrain_Round2_DataSet_20180608/tetfp.csv
set look back to 30 for stock 701
look_back 30, look_forward 5
Creating CNN model with layers 2, output_dim 128, optimizer adam, dropout 0.5
input_shape (30, 2), output 5
Adding the first Convolution1D layer
Adding additional Convolution1D layers 1
_________________________________________________________________
Layer (type)                 Output Shape              Param #   
=================================================================
conv1d_1 (Conv1D)            (None, 26, 128)           1408      
_________________________________________________________________
dropout_1 (Dropout)          (None, 26, 128)           0         
_________________________________________________________________
conv1d_2 (Conv1D)            (None, 22, 128)           82048     
_________________________________________________________________
dropout_2 (Dropout)          (None, 22, 128)           0         
_________________________________________________________________
flatten_1 (Flatten)          (None, 2816)              0         
_________________________________________________________________
dense_1 (Dense)              (None, 5)                 14085     
_________________________________________________________________
activation_1 (Activation)    (None, 5)                 0         
=================================================================
Total params: 97,541
Trainable params: 97,541
Non-trainable params: 0
_________________________________________________________________
None
Train on 135 samples, validate on 30 samples
Epoch 1/400

128/135 [===========================>..] - ETA: 0s - loss: 0.0015 - mean_squared_error: 0.0015
135/135 [==============================] - 2s 12ms/step - loss: 0.0015 - mean_squared_error: 0.0015 - val_loss: 2.3649e-04 - val_mean_squared_error: 2.3649e-04
…
30/30 [==============================] - 0s 64us/step
Test score: 0.00036328856367617846, mse: 0.00036328856367617846
Creating CNN model with layers 4, output_dim 32, optimizer adam, dropout 0.2
input_shape (30, 2), output 5
Adding the first Convolution1D layer
Adding additional Convolution1D layers 3
Adding additional Convolution1D layers 2
Adding additional Convolution1D layers 1
_________________________________________________________________
Layer (type)                 Output Shape              Param #   
=================================================================
conv1d_3 (Conv1D)            (None, 26, 32)            352       
_________________________________________________________________
dropout_3 (Dropout)          (None, 26, 32)            0         
_________________________________________________________________
conv1d_4 (Conv1D)            (None, 22, 32)            5152      
_________________________________________________________________
dropout_4 (Dropout)          (None, 22, 32)            0         
_________________________________________________________________
conv1d_5 (Conv1D)            (None, 18, 32)            5152      
_________________________________________________________________
dropout_5 (Dropout)          (None, 18, 32)            0         
_________________________________________________________________
conv1d_6 (Conv1D)            (None, 14, 32)            5152      
_________________________________________________________________
dropout_6 (Dropout)          (None, 14, 32)            0         
_________________________________________________________________
flatten_2 (Flatten)          (None, 448)               0         
_________________________________________________________________
dense_2 (Dense)              (None, 5)                 2245      
_________________________________________________________________
activation_2 (Activation)    (None, 5)                 0         
=================================================================
Total params: 18,053
Trainable params: 18,053
Non-trainable params: 0
_________________________________________________________________
None
Train on 135 samples, validate on 30 samples
Epoch 1/600

128/135 [===========================>..] - ETA: 0s - loss: 0.0011 - mean_squared_error: 0.0011
135/135 [==============================] - 1s 4ms/step - loss: 0.0011 - mean_squared_error: 0.0011 - val_loss: 2.3853e-04 - val_mean_squared_error: 2.3853e-04
…
Test score: 0.00038194144144654274, mse: 0.00038194144144654274
Creating CNN model with layers 6, output_dim 64, optimizer adam, dropout 0.2
input_shape (30, 2), output 5
Adding the first Convolution1D layer
Adding additional Convolution1D layers 5
Adding additional Convolution1D layers 4
Adding additional Convolution1D layers 3
Adding additional Convolution1D layers 2
Adding additional Convolution1D layers 1
_________________________________________________________________
Layer (type)                 Output Shape              Param #   
=================================================================
conv1d_7 (Conv1D)            (None, 26, 64)            704       
_________________________________________________________________
dropout_7 (Dropout)          (None, 26, 64)            0         
_________________________________________________________________
conv1d_8 (Conv1D)            (None, 22, 64)            20544     
_________________________________________________________________
dropout_8 (Dropout)          (None, 22, 64)            0         
_________________________________________________________________
conv1d_9 (Conv1D)            (None, 18, 64)            20544     
_________________________________________________________________
dropout_9 (Dropout)          (None, 18, 64)            0         
_________________________________________________________________
conv1d_10 (Conv1D)           (None, 14, 64)            20544     
_________________________________________________________________
dropout_10 (Dropout)         (None, 14, 64)            0         
_________________________________________________________________
conv1d_11 (Conv1D)           (None, 10, 64)            20544     
_________________________________________________________________
dropout_11 (Dropout)         (None, 10, 64)            0         
_________________________________________________________________
conv1d_12 (Conv1D)           (None, 6, 64)             20544     
_________________________________________________________________
dropout_12 (Dropout)         (None, 6, 64)             0         
_________________________________________________________________
flatten_3 (Flatten)          (None, 384)               0         
_________________________________________________________________
dense_3 (Dense)              (None, 5)                 1925      
_________________________________________________________________
activation_3 (Activation)    (None, 5)                 0         
=================================================================
Total params: 105,349
Trainable params: 105,349
Non-trainable params: 0
_________________________________________________________________
None
Train on 135 samples, validate on 30 samples
Epoch 1/600

128/135 [===========================>..] - ETA: 0s - loss: 7.7430e-04 - mean_squared_error: 7.7430e-04
135/135 [==============================] - 1s 6ms/step - loss: 7.7125e-04 - mean_squared_error: 7.7125e-04 - val_loss: 2.9922e-04 - val_mean_squared_error: 2.9922e-04
…
30/30 [==============================] - 0s 85us/step
Test score: 0.0004954219912178814, mse: 0.0004954219912178814
Creating CNN model with layers 4, output_dim 64, optimizer adam, dropout 0.4
input_shape (30, 2), output 5
Adding the first Convolution1D layer
Adding additional Convolution1D layers 3
Adding additional Convolution1D layers 2
Adding additional Convolution1D layers 1
_________________________________________________________________
Layer (type)                 Output Shape              Param #   
=================================================================
conv1d_13 (Conv1D)           (None, 26, 64)            704       
_________________________________________________________________
dropout_13 (Dropout)         (None, 26, 64)            0         
_________________________________________________________________
conv1d_14 (Conv1D)           (None, 22, 64)            20544     
_________________________________________________________________
dropout_14 (Dropout)         (None, 22, 64)            0         
_________________________________________________________________
conv1d_15 (Conv1D)           (None, 18, 64)            20544     
_________________________________________________________________
dropout_15 (Dropout)         (None, 18, 64)            0         
_________________________________________________________________
conv1d_16 (Conv1D)           (None, 14, 64)            20544     
_________________________________________________________________
dropout_16 (Dropout)         (None, 14, 64)            0         
_________________________________________________________________
flatten_4 (Flatten)          (None, 896)               0         
_________________________________________________________________
dense_4 (Dense)              (None, 5)                 4485      
_________________________________________________________________
activation_4 (Activation)    (None, 5)                 0         
=================================================================
Total params: 66,821
Trainable params: 66,821
Non-trainable params: 0
_________________________________________________________________
None
Train on 135 samples, validate on 30 samples
Epoch 1/400

128/135 [===========================>..] - ETA: 0s - loss: 0.0014 - mean_squared_error: 0.0014
135/135 [==============================] - 1s 5ms/step - loss: 0.0013 - mean_squared_error: 0.0013 - val_loss: 2.3978e-04 - val_mean_squared_error: 2.3978e-04
…
Test score: 0.0002874195633921772, mse: 0.0002874195633921772
Creating CNN model with layers 6, output_dim 32, optimizer adam, dropout 0.5
input_shape (30, 2), output 5
Adding the first Convolution1D layer
Adding additional Convolution1D layers 5
Adding additional Convolution1D layers 4
Adding additional Convolution1D layers 3
Adding additional Convolution1D layers 2
Adding additional Convolution1D layers 1
_________________________________________________________________
Layer (type)                 Output Shape              Param #   
=================================================================
conv1d_17 (Conv1D)           (None, 26, 32)            352       
_________________________________________________________________
dropout_17 (Dropout)         (None, 26, 32)            0         
_________________________________________________________________
conv1d_18 (Conv1D)           (None, 22, 32)            5152      
_________________________________________________________________
dropout_18 (Dropout)         (None, 22, 32)            0         
_________________________________________________________________
conv1d_19 (Conv1D)           (None, 18, 32)            5152      
_________________________________________________________________
dropout_19 (Dropout)         (None, 18, 32)            0         
_________________________________________________________________
conv1d_20 (Conv1D)           (None, 14, 32)            5152      
_________________________________________________________________
dropout_20 (Dropout)         (None, 14, 32)            0         
_________________________________________________________________
conv1d_21 (Conv1D)           (None, 10, 32)            5152      
_________________________________________________________________
dropout_21 (Dropout)         (None, 10, 32)            0         
_________________________________________________________________
conv1d_22 (Conv1D)           (None, 6, 32)             5152      
_________________________________________________________________
dropout_22 (Dropout)         (None, 6, 32)             0         
_________________________________________________________________
flatten_5 (Flatten)          (None, 192)               0         
_________________________________________________________________
dense_5 (Dense)              (None, 5)                 965       
_________________________________________________________________
activation_5 (Activation)    (None, 5)                 0         
=================================================================
Total params: 27,077
Trainable params: 27,077
Non-trainable params: 0
_________________________________________________________________
None
Train on 135 samples, validate on 30 samples
Epoch 1/800

128/135 [===========================>..] - ETA: 0s - loss: 0.0046 - mean_squared_error: 0.0046
135/135 [==============================] - 1s 7ms/step - loss: 0.0045 - mean_squared_error: 0.0045 - val_loss: 2.1281e-04 - val_mean_squared_error: 2.1281e-04
…
