…
historical data is loading from TBrain_Round2_DataSet_20180608/tetfp.csv
set look back to 30 for stock 701
look_back 30, look_forward 5
Creating stateless model with layers 5, output_dim 128, optimizer adam, dropout 0.2
input_shape (30, 1), output 5
Adding the first LSTM layer
Adding additional LSTM layers 4
Adding additional LSTM layers 3
Adding additional LSTM layers 2
Adding additional LSTM layers 1
_________________________________________________________________
Layer (type)                 Output Shape              Param #   
=================================================================
lstm_1 (LSTM)                (None, 30, 128)           66560     
_________________________________________________________________
dropout_1 (Dropout)          (None, 30, 128)           0         
_________________________________________________________________
lstm_2 (LSTM)                (None, 30, 128)           131584    
_________________________________________________________________
dropout_2 (Dropout)          (None, 30, 128)           0         
_________________________________________________________________
lstm_3 (LSTM)                (None, 30, 128)           131584    
_________________________________________________________________
dropout_3 (Dropout)          (None, 30, 128)           0         
_________________________________________________________________
lstm_4 (LSTM)                (None, 30, 128)           131584    
_________________________________________________________________
dropout_4 (Dropout)          (None, 30, 128)           0         
_________________________________________________________________
lstm_5 (LSTM)                (None, 128)               131584    
_________________________________________________________________
dropout_5 (Dropout)          (None, 128)               0         
_________________________________________________________________
dense_1 (Dense)              (None, 5)                 645       
_________________________________________________________________
activation_1 (Activation)    (None, 5)                 0         
=================================================================
Total params: 593,541
Trainable params: 593,541
Non-trainable params: 0
_________________________________________________________________
None
Train on 135 samples, validate on 30 samples
Epoch 1/200

128/135 [===========================>..] - ETA: 0s - loss: 7.1627e-04 - mean_squared_error: 7.1627e-04
135/135 [==============================] - 5s 35ms/step - loss: 7.0572e-04 - mean_squared_error: 7.0572e-04 - val_loss: 5.5399e-04 - val_mean_squared_error: 5.5399e-04
…
Epoch 00141: early stopping

30/30 [==============================] - 0s 2ms/step
Test score: 0.0002230545214843005, mse: 0.0002230545214843005
Creating stateless model with layers 4, output_dim 128, optimizer adam, dropout 0.2
input_shape (30, 1), output 5
Adding the first LSTM layer
Adding additional LSTM layers 3
Adding additional LSTM layers 2
Adding additional LSTM layers 1
_________________________________________________________________
Layer (type)                 Output Shape              Param #   
=================================================================
lstm_6 (LSTM)                (None, 30, 128)           66560     
_________________________________________________________________
dropout_6 (Dropout)          (None, 30, 128)           0         
_________________________________________________________________
lstm_7 (LSTM)                (None, 30, 128)           131584    
_________________________________________________________________
dropout_7 (Dropout)          (None, 30, 128)           0         
_________________________________________________________________
lstm_8 (LSTM)                (None, 30, 128)           131584    
_________________________________________________________________
dropout_8 (Dropout)          (None, 30, 128)           0         
_________________________________________________________________
lstm_9 (LSTM)                (None, 128)               131584    
_________________________________________________________________
dropout_9 (Dropout)          (None, 128)               0         
_________________________________________________________________
dense_2 (Dense)              (None, 5)                 645       
_________________________________________________________________
activation_2 (Activation)    (None, 5)                 0         
=================================================================
Total params: 461,957
Trainable params: 461,957
Non-trainable params: 0
_________________________________________________________________
None
Train on 135 samples, validate on 30 samples
Epoch 1/200

128/135 [===========================>..] - ETA: 0s - loss: 6.5538e-04 - mean_squared_error: 6.5538e-04
135/135 [==============================] - 4s 28ms/step - loss: 6.9556e-04 - mean_squared_error: 6.9556e-04 - val_loss: 6.2510e-04 - val_mean_squared_error: 6.2510e-04
…
Epoch 00096: early stopping

30/30 [==============================] - 0s 1ms/step
Test score: 0.00017764614312909544, mse: 0.00017764614312909544
Creating stateless model with layers 4, output_dim 256, optimizer adam, dropout 0.2
input_shape (30, 1), output 5
Adding the first LSTM layer
Adding additional LSTM layers 3
Adding additional LSTM layers 2
Adding additional LSTM layers 1
_________________________________________________________________
Layer (type)                 Output Shape              Param #   
=================================================================
lstm_10 (LSTM)               (None, 30, 256)           264192    
_________________________________________________________________
dropout_10 (Dropout)         (None, 30, 256)           0         
_________________________________________________________________
lstm_11 (LSTM)               (None, 30, 256)           525312    
_________________________________________________________________
dropout_11 (Dropout)         (None, 30, 256)           0         
_________________________________________________________________
lstm_12 (LSTM)               (None, 30, 256)           525312    
_________________________________________________________________
dropout_12 (Dropout)         (None, 30, 256)           0         
_________________________________________________________________
lstm_13 (LSTM)               (None, 256)               525312    
_________________________________________________________________
dropout_13 (Dropout)         (None, 256)               0         
_________________________________________________________________
dense_3 (Dense)              (None, 5)                 1285      
_________________________________________________________________
activation_3 (Activation)    (None, 5)                 0         
=================================================================
Total params: 1,841,413
Trainable params: 1,841,413
Non-trainable params: 0
_________________________________________________________________
None
Train on 135 samples, validate on 30 samples
Epoch 1/200

128/135 [===========================>..] - ETA: 0s - loss: 7.4100e-04 - mean_squared_error: 7.4100e-04
135/135 [==============================] - 4s 31ms/step - loss: 7.2491e-04 - mean_squared_error: 7.2491e-04 - val_loss: 3.1190e-04 - val_mean_squared_error: 3.1190e-04
…
30/30 [==============================] - 0s 2ms/step
Test score: 0.00012875792162958533, mse: 0.00012875792162958533
Creating stateless model with layers 5, output_dim 256, optimizer adam, dropout 0.2
input_shape (30, 1), output 5
Adding the first LSTM layer
Adding additional LSTM layers 4
Adding additional LSTM layers 3
Adding additional LSTM layers 2
Adding additional LSTM layers 1
_________________________________________________________________
Layer (type)                 Output Shape              Param #   
=================================================================
lstm_14 (LSTM)               (None, 30, 256)           264192    
_________________________________________________________________
dropout_14 (Dropout)         (None, 30, 256)           0         
_________________________________________________________________
lstm_15 (LSTM)               (None, 30, 256)           525312    
_________________________________________________________________
dropout_15 (Dropout)         (None, 30, 256)           0         
_________________________________________________________________
lstm_16 (LSTM)               (None, 30, 256)           525312    
_________________________________________________________________
dropout_16 (Dropout)         (None, 30, 256)           0         
_________________________________________________________________
lstm_17 (LSTM)               (None, 30, 256)           525312    
_________________________________________________________________
dropout_17 (Dropout)         (None, 30, 256)           0         
_________________________________________________________________
lstm_18 (LSTM)               (None, 256)               525312    
_________________________________________________________________
dropout_18 (Dropout)         (None, 256)               0         
_________________________________________________________________
dense_4 (Dense)              (None, 5)                 1285      
_________________________________________________________________
activation_4 (Activation)    (None, 5)                 0         
=================================================================
Total params: 2,366,725
Trainable params: 2,366,725
Non-trainable params: 0
_________________________________________________________________
None
Train on 135 samples, validate on 30 samples
Epoch 1/200

128/135 [===========================>..] - ETA: 0s - loss: 7.1749e-04 - mean_squared_error: 7.1749e-04
135/135 [==============================] - 5s 40ms/step - loss: 7.0746e-04 - mean_squared_error: 7.0746e-04 - val_loss: 5.2816e-04 - val_mean_squared_error: 5.2816e-04
…
