…
historical data is loading from TBrain_Round2_DataSet_20180608/tetfp.csv
set look back to 60 for stock 58
look_back 60, look_forward 5
Creating stateless model with layers 5, output_dim 128, optimizer adam, dropout 0.2
input_shape (60, 2), output 5
Adding the first LSTM layer
Adding additional LSTM layers 4
Adding additional LSTM layers 3
Adding additional LSTM layers 2
Adding additional LSTM layers 1
_________________________________________________________________
Layer (type)                 Output Shape              Param #   
=================================================================
lstm_1 (LSTM)                (None, 60, 128)           67072     
_________________________________________________________________
dropout_1 (Dropout)          (None, 60, 128)           0         
_________________________________________________________________
lstm_2 (LSTM)                (None, 60, 128)           131584    
_________________________________________________________________
dropout_2 (Dropout)          (None, 60, 128)           0         
_________________________________________________________________
lstm_3 (LSTM)                (None, 60, 128)           131584    
_________________________________________________________________
dropout_3 (Dropout)          (None, 60, 128)           0         
_________________________________________________________________
lstm_4 (LSTM)                (None, 60, 128)           131584    
_________________________________________________________________
dropout_4 (Dropout)          (None, 60, 128)           0         
_________________________________________________________________
lstm_5 (LSTM)                (None, 128)               131584    
_________________________________________________________________
dropout_5 (Dropout)          (None, 128)               0         
_________________________________________________________________
dense_1 (Dense)              (None, 5)                 645       
_________________________________________________________________
activation_1 (Activation)    (None, 5)                 0         
=================================================================
Total params: 594,053
Trainable params: 594,053
Non-trainable params: 0
_________________________________________________________________
None
Train on 692 samples, validate on 240 samples
Epoch 1/200

128/692 [====>.........................] - ETA: 19s - loss: 0.0033 - mean_squared_error: 0.0033
256/692 [==========>...................] - ETA: 8s - loss: 0.0031 - mean_squared_error: 0.0031 
…
128/240 [===============>..............] - ETA: 0s
240/240 [==============================] - 0s 951us/step
Test score: 0.0001969831297174096, mse: 0.0001969831297174096
Creating stateless model with layers 4, output_dim 128, optimizer adam, dropout 0.2
input_shape (60, 2), output 5
Adding the first LSTM layer
Adding additional LSTM layers 3
Adding additional LSTM layers 2
Adding additional LSTM layers 1
_________________________________________________________________
Layer (type)                 Output Shape              Param #   
=================================================================
lstm_6 (LSTM)                (None, 60, 128)           67072     
_________________________________________________________________
dropout_6 (Dropout)          (None, 60, 128)           0         
_________________________________________________________________
lstm_7 (LSTM)                (None, 60, 128)           131584    
_________________________________________________________________
dropout_7 (Dropout)          (None, 60, 128)           0         
_________________________________________________________________
lstm_8 (LSTM)                (None, 60, 128)           131584    
_________________________________________________________________
dropout_8 (Dropout)          (None, 60, 128)           0         
_________________________________________________________________
lstm_9 (LSTM)                (None, 128)               131584    
_________________________________________________________________
dropout_9 (Dropout)          (None, 128)               0         
_________________________________________________________________
dense_2 (Dense)              (None, 5)                 645       
_________________________________________________________________
activation_2 (Activation)    (None, 5)                 0         
=================================================================
Total params: 462,469
Trainable params: 462,469
Non-trainable params: 0
_________________________________________________________________
None
Train on 692 samples, validate on 240 samples
Epoch 1/200

128/692 [====>.........................] - ETA: 15s - loss: 0.0040 - mean_squared_error: 0.0040
256/692 [==========>...................] - ETA: 6s - loss: 0.0035 - mean_squared_error: 0.0035 
…
128/240 [===============>..............] - ETA: 0s
240/240 [==============================] - 0s 758us/step
Test score: 0.00020732030485911916, mse: 0.00020732030485911916
Creating stateless model with layers 4, output_dim 256, optimizer adam, dropout 0.2
input_shape (60, 2), output 5
Adding the first LSTM layer
Adding additional LSTM layers 3
Adding additional LSTM layers 2
Adding additional LSTM layers 1
_________________________________________________________________
Layer (type)                 Output Shape              Param #   
=================================================================
lstm_10 (LSTM)               (None, 60, 256)           265216    
_________________________________________________________________
dropout_10 (Dropout)         (None, 60, 256)           0         
_________________________________________________________________
lstm_11 (LSTM)               (None, 60, 256)           525312    
_________________________________________________________________
dropout_11 (Dropout)         (None, 60, 256)           0         
_________________________________________________________________
lstm_12 (LSTM)               (None, 60, 256)           525312    
_________________________________________________________________
dropout_12 (Dropout)         (None, 60, 256)           0         
_________________________________________________________________
lstm_13 (LSTM)               (None, 256)               525312    
_________________________________________________________________
dropout_13 (Dropout)         (None, 256)               0         
_________________________________________________________________
dense_3 (Dense)              (None, 5)                 1285      
_________________________________________________________________
activation_3 (Activation)    (None, 5)                 0         
=================================================================
Total params: 1,842,437
Trainable params: 1,842,437
Non-trainable params: 0
_________________________________________________________________
None
Train on 692 samples, validate on 240 samples
Epoch 1/200

128/692 [====>.........................] - ETA: 17s - loss: 0.0035 - mean_squared_error: 0.0035
256/692 [==========>...................] - ETA: 7s - loss: 0.0032 - mean_squared_error: 0.0032 
…
240/240 [==============================] - 0s 956us/step
Test score: 0.00019231294572819024, mse: 0.00019231294572819024
Creating stateless model with layers 5, output_dim 256, optimizer adam, dropout 0.2
input_shape (60, 2), output 5
Adding the first LSTM layer
Adding additional LSTM layers 4
Adding additional LSTM layers 3
Adding additional LSTM layers 2
Adding additional LSTM layers 1
_________________________________________________________________
Layer (type)                 Output Shape              Param #   
=================================================================
lstm_14 (LSTM)               (None, 60, 256)           265216    
_________________________________________________________________
dropout_14 (Dropout)         (None, 60, 256)           0         
_________________________________________________________________
lstm_15 (LSTM)               (None, 60, 256)           525312    
_________________________________________________________________
dropout_15 (Dropout)         (None, 60, 256)           0         
_________________________________________________________________
lstm_16 (LSTM)               (None, 60, 256)           525312    
_________________________________________________________________
dropout_16 (Dropout)         (None, 60, 256)           0         
_________________________________________________________________
lstm_17 (LSTM)               (None, 60, 256)           525312    
_________________________________________________________________
dropout_17 (Dropout)         (None, 60, 256)           0         
_________________________________________________________________
lstm_18 (LSTM)               (None, 256)               525312    
_________________________________________________________________
dropout_18 (Dropout)         (None, 256)               0         
_________________________________________________________________
dense_4 (Dense)              (None, 5)                 1285      
_________________________________________________________________
activation_4 (Activation)    (None, 5)                 0         
=================================================================
Total params: 2,367,749
Trainable params: 2,367,749
Non-trainable params: 0
_________________________________________________________________
None
Train on 692 samples, validate on 240 samples
Epoch 1/200

128/692 [====>.........................] - ETA: 21s - loss: 0.0043 - mean_squared_error: 0.0043
256/692 [==========>...................] - ETA: 9s - loss: 0.0035 - mean_squared_error: 0.0035 
…
