…
historical weighted stock price is loading from TBrain_Round2_DataSet_20180601/weighted_stock_price_index.csv
set look back to 60 for stock 55
look_back 60, look_forward 5
Creating stateless model with layers 5, output_dim 128, optimizer adam, dropout 0.2
input_shape (60, 3), output 5
Adding the first LSTM layers
Adding additional LSTM layers 4
Adding additional LSTM layers 3
Adding additional LSTM layers 2
Adding additional LSTM layers 1
_________________________________________________________________
Layer (type)                 Output Shape              Param #   
=================================================================
lstm_1 (LSTM)                (None, 60, 128)           67584     
_________________________________________________________________
dropout_1 (Dropout)          (None, 60, 128)           0         
_________________________________________________________________
lstm_2 (LSTM)                (None, 60, 128)           131584    
_________________________________________________________________
dropout_2 (Dropout)          (None, 60, 128)           0         
_________________________________________________________________
lstm_3 (LSTM)                (None, 60, 128)           131584    
_________________________________________________________________
dropout_3 (Dropout)          (None, 60, 128)           0         
_________________________________________________________________
lstm_4 (LSTM)                (None, 60, 128)           131584    
_________________________________________________________________
dropout_4 (Dropout)          (None, 60, 128)           0         
_________________________________________________________________
lstm_5 (LSTM)                (None, 128)               131584    
_________________________________________________________________
dropout_5 (Dropout)          (None, 128)               0         
_________________________________________________________________
dense_1 (Dense)              (None, 5)                 645       
_________________________________________________________________
activation_1 (Activation)    (None, 5)                 0         
=================================================================
Total params: 594,565
Trainable params: 594,565
Non-trainable params: 0
_________________________________________________________________
None
Train on 1023 samples, validate on 240 samples
Epoch 1/200

 128/1023 [==>...........................] - ETA: 30s - loss: 0.0045 - mean_squared_error: 0.0045
 256/1023 [======>.......................] - ETA: 14s - loss: 0.0047 - mean_squared_error: 0.0047
…
128/240 [===============>..............] - ETA: 0s
240/240 [==============================] - 0s 970us/step
Test score: 0.00014440558831362675, mse: 0.00014440558831362675
Creating stateless model with layers 4, output_dim 128, optimizer adam, dropout 0.2
input_shape (60, 3), output 5
Adding the first LSTM layers
Adding additional LSTM layers 3
Adding additional LSTM layers 2
Adding additional LSTM layers 1
_________________________________________________________________
Layer (type)                 Output Shape              Param #   
=================================================================
lstm_6 (LSTM)                (None, 60, 128)           67584     
_________________________________________________________________
dropout_6 (Dropout)          (None, 60, 128)           0         
_________________________________________________________________
lstm_7 (LSTM)                (None, 60, 128)           131584    
_________________________________________________________________
dropout_7 (Dropout)          (None, 60, 128)           0         
_________________________________________________________________
lstm_8 (LSTM)                (None, 60, 128)           131584    
_________________________________________________________________
dropout_8 (Dropout)          (None, 60, 128)           0         
_________________________________________________________________
lstm_9 (LSTM)                (None, 128)               131584    
_________________________________________________________________
dropout_9 (Dropout)          (None, 128)               0         
_________________________________________________________________
dense_2 (Dense)              (None, 5)                 645       
_________________________________________________________________
activation_2 (Activation)    (None, 5)                 0         
=================================================================
Total params: 462,981
Trainable params: 462,981
Non-trainable params: 0
_________________________________________________________________
None
Train on 1023 samples, validate on 240 samples
Epoch 1/200

 128/1023 [==>...........................] - ETA: 22s - loss: 0.0076 - mean_squared_error: 0.0076
 256/1023 [======>.......................] - ETA: 10s - loss: 0.0061 - mean_squared_error: 0.0061
…
128/240 [===============>..............] - ETA: 0s
240/240 [==============================] - 0s 826us/step
Test score: 0.00014633086296574524, mse: 0.00014633086296574524
Creating stateless model with layers 4, output_dim 256, optimizer adam, dropout 0.2
input_shape (60, 3), output 5
Adding the first LSTM layers
Adding additional LSTM layers 3
Adding additional LSTM layers 2
Adding additional LSTM layers 1
_________________________________________________________________
Layer (type)                 Output Shape              Param #   
=================================================================
lstm_10 (LSTM)               (None, 60, 256)           266240    
_________________________________________________________________
dropout_10 (Dropout)         (None, 60, 256)           0         
_________________________________________________________________
lstm_11 (LSTM)               (None, 60, 256)           525312    
_________________________________________________________________
dropout_11 (Dropout)         (None, 60, 256)           0         
_________________________________________________________________
lstm_12 (LSTM)               (None, 60, 256)           525312    
_________________________________________________________________
dropout_12 (Dropout)         (None, 60, 256)           0         
_________________________________________________________________
lstm_13 (LSTM)               (None, 256)               525312    
_________________________________________________________________
dropout_13 (Dropout)         (None, 256)               0         
_________________________________________________________________
dense_3 (Dense)              (None, 5)                 1285      
_________________________________________________________________
activation_3 (Activation)    (None, 5)                 0         
=================================================================
Total params: 1,843,461
Trainable params: 1,843,461
Non-trainable params: 0
_________________________________________________________________
None
Train on 1023 samples, validate on 240 samples
Epoch 1/200

 128/1023 [==>...........................] - ETA: 26s - loss: 0.0045 - mean_squared_error: 0.0045
 256/1023 [======>.......................] - ETA: 12s - loss: 0.0049 - mean_squared_error: 0.0049
…
240/240 [==============================] - 0s 974us/step
Test score: 0.00017063581520536294, mse: 0.00017063581520536294
Creating stateless model with layers 5, output_dim 256, optimizer adam, dropout 0.2
input_shape (60, 3), output 5
Adding the first LSTM layers
Adding additional LSTM layers 4
Adding additional LSTM layers 3
Adding additional LSTM layers 2
Adding additional LSTM layers 1
_________________________________________________________________
Layer (type)                 Output Shape              Param #   
=================================================================
lstm_14 (LSTM)               (None, 60, 256)           266240    
_________________________________________________________________
dropout_14 (Dropout)         (None, 60, 256)           0         
_________________________________________________________________
lstm_15 (LSTM)               (None, 60, 256)           525312    
_________________________________________________________________
dropout_15 (Dropout)         (None, 60, 256)           0         
_________________________________________________________________
lstm_16 (LSTM)               (None, 60, 256)           525312    
_________________________________________________________________
dropout_16 (Dropout)         (None, 60, 256)           0         
_________________________________________________________________
lstm_17 (LSTM)               (None, 60, 256)           525312    
_________________________________________________________________
dropout_17 (Dropout)         (None, 60, 256)           0         
_________________________________________________________________
lstm_18 (LSTM)               (None, 256)               525312    
_________________________________________________________________
dropout_18 (Dropout)         (None, 256)               0         
_________________________________________________________________
dense_4 (Dense)              (None, 5)                 1285      
_________________________________________________________________
activation_4 (Activation)    (None, 5)                 0         
=================================================================
Total params: 2,368,773
Trainable params: 2,368,773
Non-trainable params: 0
_________________________________________________________________
None
Train on 1023 samples, validate on 240 samples
Epoch 1/200

 128/1023 [==>...........................] - ETA: 33s - loss: 0.0050 - mean_squared_error: 0.0050
 256/1023 [======>.......................] - ETA: 15s - loss: 0.0049 - mean_squared_error: 0.0049
…
