…
historical weighted stock price is loading from TBrain_Round2_DataSet_20180601/weighted_stock_price_index.csv
set look back to 30 for stock 713
look_back 30, look_forward 5
Creating stateless model with layers 5, output_dim 128, optimizer adam, dropout 0.2
input_shape (30, 3), output 5
Adding the first LSTM layers
Adding additional LSTM layers 4
Adding additional LSTM layers 3
Adding additional LSTM layers 2
Adding additional LSTM layers 1
_________________________________________________________________
Layer (type)                 Output Shape              Param #   
=================================================================
lstm_1 (LSTM)                (None, 30, 128)           67584     
_________________________________________________________________
dropout_1 (Dropout)          (None, 30, 128)           0         
_________________________________________________________________
lstm_2 (LSTM)                (None, 30, 128)           131584    
_________________________________________________________________
dropout_2 (Dropout)          (None, 30, 128)           0         
_________________________________________________________________
lstm_3 (LSTM)                (None, 30, 128)           131584    
_________________________________________________________________
dropout_3 (Dropout)          (None, 30, 128)           0         
_________________________________________________________________
lstm_4 (LSTM)                (None, 30, 128)           131584    
_________________________________________________________________
dropout_4 (Dropout)          (None, 30, 128)           0         
_________________________________________________________________
lstm_5 (LSTM)                (None, 128)               131584    
_________________________________________________________________
dropout_5 (Dropout)          (None, 128)               0         
_________________________________________________________________
dense_1 (Dense)              (None, 5)                 645       
_________________________________________________________________
activation_1 (Activation)    (None, 5)                 0         
=================================================================
Total params: 594,565
Trainable params: 594,565
Non-trainable params: 0
_________________________________________________________________
None
Train on 101 samples, validate on 30 samples
Epoch 1/200

101/101 [==============================] - 4s 44ms/step - loss: 4.0132e-04 - mean_squared_error: 4.0132e-04 - val_loss: 1.0377e-04 - val_mean_squared_error: 1.0377e-04
…
Epoch 00122: early stopping

30/30 [==============================] - 0s 2ms/step
Test score: 0.00012449579662643373, mse: 0.00012449579662643373
Creating stateless model with layers 4, output_dim 128, optimizer adam, dropout 0.2
input_shape (30, 3), output 5
Adding the first LSTM layers
Adding additional LSTM layers 3
Adding additional LSTM layers 2
Adding additional LSTM layers 1
_________________________________________________________________
Layer (type)                 Output Shape              Param #   
=================================================================
lstm_6 (LSTM)                (None, 30, 128)           67584     
_________________________________________________________________
dropout_6 (Dropout)          (None, 30, 128)           0         
_________________________________________________________________
lstm_7 (LSTM)                (None, 30, 128)           131584    
_________________________________________________________________
dropout_7 (Dropout)          (None, 30, 128)           0         
_________________________________________________________________
lstm_8 (LSTM)                (None, 30, 128)           131584    
_________________________________________________________________
dropout_8 (Dropout)          (None, 30, 128)           0         
_________________________________________________________________
lstm_9 (LSTM)                (None, 128)               131584    
_________________________________________________________________
dropout_9 (Dropout)          (None, 128)               0         
_________________________________________________________________
dense_2 (Dense)              (None, 5)                 645       
_________________________________________________________________
activation_2 (Activation)    (None, 5)                 0         
=================================================================
Total params: 462,981
Trainable params: 462,981
Non-trainable params: 0
_________________________________________________________________
None
Train on 101 samples, validate on 30 samples
Epoch 1/200

101/101 [==============================] - 3s 34ms/step - loss: 3.9911e-04 - mean_squared_error: 3.9911e-04 - val_loss: 1.0533e-04 - val_mean_squared_error: 1.0533e-04
…
Epoch 00123: early stopping

30/30 [==============================] - 0s 1ms/step
Test score: 0.0001074210595106706, mse: 0.0001074210595106706
Creating stateless model with layers 4, output_dim 256, optimizer adam, dropout 0.2
input_shape (30, 3), output 5
Adding the first LSTM layers
Adding additional LSTM layers 3
Adding additional LSTM layers 2
Adding additional LSTM layers 1
_________________________________________________________________
Layer (type)                 Output Shape              Param #   
=================================================================
lstm_10 (LSTM)               (None, 30, 256)           266240    
_________________________________________________________________
dropout_10 (Dropout)         (None, 30, 256)           0         
_________________________________________________________________
lstm_11 (LSTM)               (None, 30, 256)           525312    
_________________________________________________________________
dropout_11 (Dropout)         (None, 30, 256)           0         
_________________________________________________________________
lstm_12 (LSTM)               (None, 30, 256)           525312    
_________________________________________________________________
dropout_12 (Dropout)         (None, 30, 256)           0         
_________________________________________________________________
lstm_13 (LSTM)               (None, 256)               525312    
_________________________________________________________________
dropout_13 (Dropout)         (None, 256)               0         
_________________________________________________________________
dense_3 (Dense)              (None, 5)                 1285      
_________________________________________________________________
activation_3 (Activation)    (None, 5)                 0         
=================================================================
Total params: 1,843,461
Trainable params: 1,843,461
Non-trainable params: 0
_________________________________________________________________
None
Train on 101 samples, validate on 30 samples
Epoch 1/200

101/101 [==============================] - 4s 38ms/step - loss: 3.9985e-04 - mean_squared_error: 3.9985e-04 - val_loss: 1.0225e-04 - val_mean_squared_error: 1.0225e-04
…
30/30 [==============================] - 0s 2ms/step
Test score: 0.00010355961421737447, mse: 0.00010355961421737447
Creating stateless model with layers 5, output_dim 256, optimizer adam, dropout 0.2
input_shape (30, 3), output 5
Adding the first LSTM layers
Adding additional LSTM layers 4
Adding additional LSTM layers 3
Adding additional LSTM layers 2
Adding additional LSTM layers 1
_________________________________________________________________
Layer (type)                 Output Shape              Param #   
=================================================================
lstm_14 (LSTM)               (None, 30, 256)           266240    
_________________________________________________________________
dropout_14 (Dropout)         (None, 30, 256)           0         
_________________________________________________________________
lstm_15 (LSTM)               (None, 30, 256)           525312    
_________________________________________________________________
dropout_15 (Dropout)         (None, 30, 256)           0         
_________________________________________________________________
lstm_16 (LSTM)               (None, 30, 256)           525312    
_________________________________________________________________
dropout_16 (Dropout)         (None, 30, 256)           0         
_________________________________________________________________
lstm_17 (LSTM)               (None, 30, 256)           525312    
_________________________________________________________________
dropout_17 (Dropout)         (None, 30, 256)           0         
_________________________________________________________________
lstm_18 (LSTM)               (None, 256)               525312    
_________________________________________________________________
dropout_18 (Dropout)         (None, 256)               0         
_________________________________________________________________
dense_4 (Dense)              (None, 5)                 1285      
_________________________________________________________________
activation_4 (Activation)    (None, 5)                 0         
=================================================================
Total params: 2,368,773
Trainable params: 2,368,773
Non-trainable params: 0
_________________________________________________________________
None
Train on 101 samples, validate on 30 samples
Epoch 1/200

101/101 [==============================] - 5s 51ms/step - loss: 3.9974e-04 - mean_squared_error: 3.9974e-04 - val_loss: 1.1239e-04 - val_mean_squared_error: 1.1239e-04
…
