…
historical data is loading from TBrain_Round2_DataSet_20180525/tetfp.csv
set look back to 20 for stock 713
Creating stateless model with layers 5, output_dim 128, optimizer adam, dropout 0.2
input_shape (20, 2), output 5
Adding the first LSTM layers
Adding additional LSTM layers 4
Adding additional LSTM layers 3
Adding additional LSTM layers 2
Adding additional LSTM layers 1
_________________________________________________________________
Layer (type)                 Output Shape              Param #   
=================================================================
lstm_1 (LSTM)                (None, 20, 128)           67072     
_________________________________________________________________
dropout_1 (Dropout)          (None, 20, 128)           0         
_________________________________________________________________
lstm_2 (LSTM)                (None, 20, 128)           131584    
_________________________________________________________________
dropout_2 (Dropout)          (None, 20, 128)           0         
_________________________________________________________________
lstm_3 (LSTM)                (None, 20, 128)           131584    
_________________________________________________________________
dropout_3 (Dropout)          (None, 20, 128)           0         
_________________________________________________________________
lstm_4 (LSTM)                (None, 20, 128)           131584    
_________________________________________________________________
dropout_4 (Dropout)          (None, 20, 128)           0         
_________________________________________________________________
lstm_5 (LSTM)                (None, 128)               131584    
_________________________________________________________________
dropout_5 (Dropout)          (None, 128)               0         
_________________________________________________________________
dense_1 (Dense)              (None, 5)                 645       
_________________________________________________________________
activation_1 (Activation)    (None, 5)                 0         
=================================================================
Total params: 594,053
Trainable params: 594,053
Non-trainable params: 0
_________________________________________________________________
None
Train on 106 samples, validate on 30 samples
Epoch 1/200

106/106 [==============================] - 4s 37ms/step - loss: 4.4697e-04 - mean_squared_error: 4.4697e-04 - val_loss: 1.1204e-04 - val_mean_squared_error: 1.1204e-04
…
Epoch 00185: early stopping

30/30 [==============================] - 0s 1ms/step
Test score: 0.00011427164281485602, mse: 0.00011427164281485602
Creating stateless model with layers 4, output_dim 128, optimizer adam, dropout 0.2
input_shape (20, 2), output 5
Adding the first LSTM layers
Adding additional LSTM layers 3
Adding additional LSTM layers 2
Adding additional LSTM layers 1
_________________________________________________________________
Layer (type)                 Output Shape              Param #   
=================================================================
lstm_6 (LSTM)                (None, 20, 128)           67072     
_________________________________________________________________
dropout_6 (Dropout)          (None, 20, 128)           0         
_________________________________________________________________
lstm_7 (LSTM)                (None, 20, 128)           131584    
_________________________________________________________________
dropout_7 (Dropout)          (None, 20, 128)           0         
_________________________________________________________________
lstm_8 (LSTM)                (None, 20, 128)           131584    
_________________________________________________________________
dropout_8 (Dropout)          (None, 20, 128)           0         
_________________________________________________________________
lstm_9 (LSTM)                (None, 128)               131584    
_________________________________________________________________
dropout_9 (Dropout)          (None, 128)               0         
_________________________________________________________________
dense_2 (Dense)              (None, 5)                 645       
_________________________________________________________________
activation_2 (Activation)    (None, 5)                 0         
=================================================================
Total params: 462,469
Trainable params: 462,469
Non-trainable params: 0
_________________________________________________________________
None
Train on 106 samples, validate on 30 samples
Epoch 1/200

106/106 [==============================] - 3s 29ms/step - loss: 4.4932e-04 - mean_squared_error: 4.4932e-04 - val_loss: 1.2566e-04 - val_mean_squared_error: 1.2566e-04
…
Epoch 00184: early stopping

30/30 [==============================] - 0s 1ms/step
Test score: 8.720278856344521e-05, mse: 8.720278856344521e-05
Creating stateless model with layers 4, output_dim 256, optimizer adam, dropout 0.2
input_shape (20, 2), output 5
Adding the first LSTM layers
Adding additional LSTM layers 3
Adding additional LSTM layers 2
Adding additional LSTM layers 1
_________________________________________________________________
Layer (type)                 Output Shape              Param #   
=================================================================
lstm_10 (LSTM)               (None, 20, 256)           265216    
_________________________________________________________________
dropout_10 (Dropout)         (None, 20, 256)           0         
_________________________________________________________________
lstm_11 (LSTM)               (None, 20, 256)           525312    
_________________________________________________________________
dropout_11 (Dropout)         (None, 20, 256)           0         
_________________________________________________________________
lstm_12 (LSTM)               (None, 20, 256)           525312    
_________________________________________________________________
dropout_12 (Dropout)         (None, 20, 256)           0         
_________________________________________________________________
lstm_13 (LSTM)               (None, 256)               525312    
_________________________________________________________________
dropout_13 (Dropout)         (None, 256)               0         
_________________________________________________________________
dense_3 (Dense)              (None, 5)                 1285      
_________________________________________________________________
activation_3 (Activation)    (None, 5)                 0         
=================================================================
Total params: 1,842,437
Trainable params: 1,842,437
Non-trainable params: 0
_________________________________________________________________
None
Train on 106 samples, validate on 30 samples
Epoch 1/200

106/106 [==============================] - 3s 32ms/step - loss: 4.4107e-04 - mean_squared_error: 4.4107e-04 - val_loss: 8.9940e-05 - val_mean_squared_error: 8.9940e-05
…
30/30 [==============================] - 0s 1ms/step
Test score: 9.536903235130012e-05, mse: 9.536903235130012e-05
Creating stateless model with layers 5, output_dim 256, optimizer adam, dropout 0.2
input_shape (20, 2), output 5
Adding the first LSTM layers
Adding additional LSTM layers 4
Adding additional LSTM layers 3
Adding additional LSTM layers 2
Adding additional LSTM layers 1
_________________________________________________________________
Layer (type)                 Output Shape              Param #   
=================================================================
lstm_14 (LSTM)               (None, 20, 256)           265216    
_________________________________________________________________
dropout_14 (Dropout)         (None, 20, 256)           0         
_________________________________________________________________
lstm_15 (LSTM)               (None, 20, 256)           525312    
_________________________________________________________________
dropout_15 (Dropout)         (None, 20, 256)           0         
_________________________________________________________________
lstm_16 (LSTM)               (None, 20, 256)           525312    
_________________________________________________________________
dropout_16 (Dropout)         (None, 20, 256)           0         
_________________________________________________________________
lstm_17 (LSTM)               (None, 20, 256)           525312    
_________________________________________________________________
dropout_17 (Dropout)         (None, 20, 256)           0         
_________________________________________________________________
lstm_18 (LSTM)               (None, 256)               525312    
_________________________________________________________________
dropout_18 (Dropout)         (None, 256)               0         
_________________________________________________________________
dense_4 (Dense)              (None, 5)                 1285      
_________________________________________________________________
activation_4 (Activation)    (None, 5)                 0         
=================================================================
Total params: 2,367,749
Trainable params: 2,367,749
Non-trainable params: 0
_________________________________________________________________
None
Train on 106 samples, validate on 30 samples
Epoch 1/200

106/106 [==============================] - 5s 43ms/step - loss: 4.5186e-04 - mean_squared_error: 4.5186e-04 - val_loss: 9.7516e-05 - val_mean_squared_error: 9.7516e-05
…
