…
historical data is loading from TBrain_Round2_DataSet_20180608/tetfp.csv
set look back to 60 for stock 50
look_back 60, look_forward 5
Creating CNN model with layers 2, output_dim 128, optimizer adam, dropout 0.5
input_shape (60, 2), output 5
Adding the first Convolution1D layer
Adding MaxPooling1D to downsample the output of convolution by 2X
Adding additional Convolution1D layers 1
_________________________________________________________________
Layer (type)                 Output Shape              Param #   
=================================================================
conv1d_1 (Conv1D)            (None, 56, 128)           1408      
_________________________________________________________________
dropout_1 (Dropout)          (None, 56, 128)           0         
_________________________________________________________________
max_pooling1d_1 (MaxPooling1 (None, 28, 128)           0         
_________________________________________________________________
conv1d_2 (Conv1D)            (None, 26, 128)           49280     
_________________________________________________________________
dropout_2 (Dropout)          (None, 26, 128)           0         
_________________________________________________________________
flatten_1 (Flatten)          (None, 3328)              0         
_________________________________________________________________
dense_1 (Dense)              (None, 5)                 16645     
_________________________________________________________________
activation_1 (Activation)    (None, 5)                 0         
=================================================================
Total params: 67,333
Trainable params: 67,333
Non-trainable params: 0
_________________________________________________________________
None
Train on 1028 samples, validate on 240 samples
Epoch 1/400

 128/1028 [==>...........................] - ETA: 12s - loss: 0.0057 - mean_squared_error: 0.0057
 896/1028 [=========================>....] - ETA: 0s - loss: 0.0038 - mean_squared_error: 0.0038 
…
Test score: 0.00045550122934704025, mse: 0.00045550122934704025
Creating CNN model with layers 4, output_dim 32, optimizer adam, dropout 0.2
input_shape (60, 2), output 5
Adding the first Convolution1D layer
Adding MaxPooling1D to downsample the output of convolution by 2X
Adding additional Convolution1D layers 3
Adding additional Convolution1D layers 2
Adding additional Convolution1D layers 1
_________________________________________________________________
Layer (type)                 Output Shape              Param #   
=================================================================
conv1d_3 (Conv1D)            (None, 56, 32)            352       
_________________________________________________________________
dropout_3 (Dropout)          (None, 56, 32)            0         
_________________________________________________________________
max_pooling1d_2 (MaxPooling1 (None, 28, 32)            0         
_________________________________________________________________
conv1d_4 (Conv1D)            (None, 26, 32)            3104      
_________________________________________________________________
dropout_4 (Dropout)          (None, 26, 32)            0         
_________________________________________________________________
conv1d_5 (Conv1D)            (None, 24, 32)            3104      
_________________________________________________________________
dropout_5 (Dropout)          (None, 24, 32)            0         
_________________________________________________________________
conv1d_6 (Conv1D)            (None, 22, 32)            3104      
_________________________________________________________________
dropout_6 (Dropout)          (None, 22, 32)            0         
_________________________________________________________________
flatten_2 (Flatten)          (None, 704)               0         
_________________________________________________________________
dense_2 (Dense)              (None, 5)                 3525      
_________________________________________________________________
activation_2 (Activation)    (None, 5)                 0         
=================================================================
Total params: 13,189
Trainable params: 13,189
Non-trainable params: 0
_________________________________________________________________
None
Train on 1028 samples, validate on 240 samples
Epoch 1/600

 128/1028 [==>...........................] - ETA: 3s - loss: 0.0103 - mean_squared_error: 0.0103
1024/1028 [============================>.] - ETA: 0s - loss: 0.0053 - mean_squared_error: 0.0053
…
Creating CNN model with layers 6, output_dim 64, optimizer adam, dropout 0.2
input_shape (60, 2), output 5
Adding the first Convolution1D layer
Adding MaxPooling1D to downsample the output of convolution by 2X
Adding additional Convolution1D layers 5
Adding additional Convolution1D layers 4
Adding additional Convolution1D layers 3
Adding additional Convolution1D layers 2
Adding additional Convolution1D layers 1
_________________________________________________________________
Layer (type)                 Output Shape              Param #   
=================================================================
conv1d_7 (Conv1D)            (None, 56, 64)            704       
_________________________________________________________________
dropout_7 (Dropout)          (None, 56, 64)            0         
_________________________________________________________________
max_pooling1d_3 (MaxPooling1 (None, 28, 64)            0         
_________________________________________________________________
conv1d_8 (Conv1D)            (None, 26, 64)            12352     
_________________________________________________________________
dropout_8 (Dropout)          (None, 26, 64)            0         
_________________________________________________________________
conv1d_9 (Conv1D)            (None, 24, 64)            12352     
_________________________________________________________________
dropout_9 (Dropout)          (None, 24, 64)            0         
_________________________________________________________________
conv1d_10 (Conv1D)           (None, 22, 64)            12352     
_________________________________________________________________
dropout_10 (Dropout)         (None, 22, 64)            0         
_________________________________________________________________
conv1d_11 (Conv1D)           (None, 20, 64)            12352     
_________________________________________________________________
dropout_11 (Dropout)         (None, 20, 64)            0         
_________________________________________________________________
conv1d_12 (Conv1D)           (None, 18, 64)            12352     
_________________________________________________________________
dropout_12 (Dropout)         (None, 18, 64)            0         
_________________________________________________________________
flatten_3 (Flatten)          (None, 1152)              0         
_________________________________________________________________
dense_3 (Dense)              (None, 5)                 5765      
_________________________________________________________________
activation_3 (Activation)    (None, 5)                 0         
=================================================================
Total params: 68,229
Trainable params: 68,229
Non-trainable params: 0
_________________________________________________________________
None
Train on 1028 samples, validate on 240 samples
Epoch 1/600

 128/1028 [==>...........................] - ETA: 5s - loss: 0.0038 - mean_squared_error: 0.0038
 640/1028 [=================>............] - ETA: 0s - loss: 0.0033 - mean_squared_error: 0.0033
…
Test score: 0.0004828080185689032, mse: 0.0004828080185689032
Creating CNN model with layers 4, output_dim 64, optimizer adam, dropout 0.4
input_shape (60, 2), output 5
Adding the first Convolution1D layer
Adding MaxPooling1D to downsample the output of convolution by 2X
Adding additional Convolution1D layers 3
Adding additional Convolution1D layers 2
Adding additional Convolution1D layers 1
_________________________________________________________________
Layer (type)                 Output Shape              Param #   
=================================================================
conv1d_13 (Conv1D)           (None, 56, 64)            704       
_________________________________________________________________
dropout_13 (Dropout)         (None, 56, 64)            0         
_________________________________________________________________
max_pooling1d_4 (MaxPooling1 (None, 28, 64)            0         
_________________________________________________________________
conv1d_14 (Conv1D)           (None, 26, 64)            12352     
_________________________________________________________________
dropout_14 (Dropout)         (None, 26, 64)            0         
_________________________________________________________________
conv1d_15 (Conv1D)           (None, 24, 64)            12352     
_________________________________________________________________
dropout_15 (Dropout)         (None, 24, 64)            0         
_________________________________________________________________
conv1d_16 (Conv1D)           (None, 22, 64)            12352     
_________________________________________________________________
dropout_16 (Dropout)         (None, 22, 64)            0         
_________________________________________________________________
flatten_4 (Flatten)          (None, 1408)              0         
_________________________________________________________________
dense_4 (Dense)              (None, 5)                 7045      
_________________________________________________________________
activation_4 (Activation)    (None, 5)                 0         
=================================================================
Total params: 44,805
Trainable params: 44,805
Non-trainable params: 0
_________________________________________________________________
None
Train on 1028 samples, validate on 240 samples
Epoch 1/400

 128/1028 [==>...........................] - ETA: 3s - loss: 0.0054 - mean_squared_error: 0.0054
 896/1028 [=========================>....] - ETA: 0s - loss: 0.0037 - mean_squared_error: 0.0037
…
Creating CNN model with layers 6, output_dim 32, optimizer adam, dropout 0.5
input_shape (60, 2), output 5
Adding the first Convolution1D layer
Adding MaxPooling1D to downsample the output of convolution by 2X
Adding additional Convolution1D layers 5
Adding additional Convolution1D layers 4
Adding additional Convolution1D layers 3
Adding additional Convolution1D layers 2
Adding additional Convolution1D layers 1
_________________________________________________________________
Layer (type)                 Output Shape              Param #   
=================================================================
conv1d_17 (Conv1D)           (None, 56, 32)            352       
_________________________________________________________________
dropout_17 (Dropout)         (None, 56, 32)            0         
_________________________________________________________________
max_pooling1d_5 (MaxPooling1 (None, 28, 32)            0         
_________________________________________________________________
conv1d_18 (Conv1D)           (None, 26, 32)            3104      
_________________________________________________________________
dropout_18 (Dropout)         (None, 26, 32)            0         
_________________________________________________________________
conv1d_19 (Conv1D)           (None, 24, 32)            3104      
_________________________________________________________________
dropout_19 (Dropout)         (None, 24, 32)            0         
_________________________________________________________________
conv1d_20 (Conv1D)           (None, 22, 32)            3104      
_________________________________________________________________
dropout_20 (Dropout)         (None, 22, 32)            0         
_________________________________________________________________
conv1d_21 (Conv1D)           (None, 20, 32)            3104      
_________________________________________________________________
dropout_21 (Dropout)         (None, 20, 32)            0         
_________________________________________________________________
conv1d_22 (Conv1D)           (None, 18, 32)            3104      
_________________________________________________________________
dropout_22 (Dropout)         (None, 18, 32)            0         
_________________________________________________________________
flatten_5 (Flatten)          (None, 576)               0         
_________________________________________________________________
dense_5 (Dense)              (None, 5)                 2885      
_________________________________________________________________
activation_5 (Activation)    (None, 5)                 0         
=================================================================
Total params: 18,757
Trainable params: 18,757
Non-trainable params: 0
_________________________________________________________________
None
Train on 1028 samples, validate on 240 samples
Epoch 1/800

 128/1028 [==>...........................] - ETA: 5s - loss: 0.0073 - mean_squared_error: 0.0073
 896/1028 [=========================>....] - ETA: 0s - loss: 0.0045 - mean_squared_error: 0.0045
…
