…
historical data is loading from TBrain_Round2_DataSet_20180608/tetfp.csv
set look back to 30 for stock 701
look_back 30, look_forward 5
Creating CNN model with layers 2, output_dim 128, optimizer adam, dropout 0.5
input_shape (30, 2), output 5
Adding the first Convolution1D layer
Adding MaxPooling1D to downsample the output of convolution by 2X
Adding additional Convolution1D layers 1
_________________________________________________________________
Layer (type)                 Output Shape              Param #   
=================================================================
conv1d_1 (Conv1D)            (None, 26, 128)           1408      
_________________________________________________________________
dropout_1 (Dropout)          (None, 26, 128)           0         
_________________________________________________________________
max_pooling1d_1 (MaxPooling1 (None, 13, 128)           0         
_________________________________________________________________
conv1d_2 (Conv1D)            (None, 11, 128)           49280     
_________________________________________________________________
dropout_2 (Dropout)          (None, 11, 128)           0         
_________________________________________________________________
flatten_1 (Flatten)          (None, 1408)              0         
_________________________________________________________________
dense_1 (Dense)              (None, 5)                 7045      
_________________________________________________________________
activation_1 (Activation)    (None, 5)                 0         
=================================================================
Total params: 57,733
Trainable params: 57,733
Non-trainable params: 0
_________________________________________________________________
None
Train on 135 samples, validate on 30 samples
Epoch 1/400

128/135 [===========================>..] - ETA: 0s - loss: 0.0021 - mean_squared_error: 0.0021
135/135 [==============================] - 2s 12ms/step - loss: 0.0022 - mean_squared_error: 0.0022 - val_loss: 2.3695e-04 - val_mean_squared_error: 2.3695e-04
…
Test score: 0.00021286380069795996, mse: 0.00021286380069795996
Creating CNN model with layers 4, output_dim 32, optimizer adam, dropout 0.2
input_shape (30, 2), output 5
Adding the first Convolution1D layer
Adding MaxPooling1D to downsample the output of convolution by 2X
Adding additional Convolution1D layers 3
Adding additional Convolution1D layers 2
Adding additional Convolution1D layers 1
_________________________________________________________________
Layer (type)                 Output Shape              Param #   
=================================================================
conv1d_3 (Conv1D)            (None, 26, 32)            352       
_________________________________________________________________
dropout_3 (Dropout)          (None, 26, 32)            0         
_________________________________________________________________
max_pooling1d_2 (MaxPooling1 (None, 13, 32)            0         
_________________________________________________________________
conv1d_4 (Conv1D)            (None, 11, 32)            3104      
_________________________________________________________________
dropout_4 (Dropout)          (None, 11, 32)            0         
_________________________________________________________________
conv1d_5 (Conv1D)            (None, 9, 32)             3104      
_________________________________________________________________
dropout_5 (Dropout)          (None, 9, 32)             0         
_________________________________________________________________
conv1d_6 (Conv1D)            (None, 7, 32)             3104      
_________________________________________________________________
dropout_6 (Dropout)          (None, 7, 32)             0         
_________________________________________________________________
flatten_2 (Flatten)          (None, 224)               0         
_________________________________________________________________
dense_2 (Dense)              (None, 5)                 1125      
_________________________________________________________________
activation_2 (Activation)    (None, 5)                 0         
=================================================================
Total params: 10,789
Trainable params: 10,789
Non-trainable params: 0
_________________________________________________________________
None
Train on 135 samples, validate on 30 samples
Epoch 1/600

128/135 [===========================>..] - ETA: 0s - loss: 0.0020 - mean_squared_error: 0.0020
135/135 [==============================] - 1s 4ms/step - loss: 0.0020 - mean_squared_error: 0.0020 - val_loss: 2.2504e-04 - val_mean_squared_error: 2.2504e-04
…
Creating CNN model with layers 6, output_dim 64, optimizer adam, dropout 0.2
input_shape (30, 2), output 5
Adding the first Convolution1D layer
Adding MaxPooling1D to downsample the output of convolution by 2X
Adding additional Convolution1D layers 5
Adding additional Convolution1D layers 4
Adding additional Convolution1D layers 3
Adding additional Convolution1D layers 2
Adding additional Convolution1D layers 1
_________________________________________________________________
Layer (type)                 Output Shape              Param #   
=================================================================
conv1d_7 (Conv1D)            (None, 26, 64)            704       
_________________________________________________________________
dropout_7 (Dropout)          (None, 26, 64)            0         
_________________________________________________________________
max_pooling1d_3 (MaxPooling1 (None, 13, 64)            0         
_________________________________________________________________
conv1d_8 (Conv1D)            (None, 11, 64)            12352     
_________________________________________________________________
dropout_8 (Dropout)          (None, 11, 64)            0         
_________________________________________________________________
conv1d_9 (Conv1D)            (None, 9, 64)             12352     
_________________________________________________________________
dropout_9 (Dropout)          (None, 9, 64)             0         
_________________________________________________________________
conv1d_10 (Conv1D)           (None, 7, 64)             12352     
_________________________________________________________________
dropout_10 (Dropout)         (None, 7, 64)             0         
_________________________________________________________________
conv1d_11 (Conv1D)           (None, 5, 64)             12352     
_________________________________________________________________
dropout_11 (Dropout)         (None, 5, 64)             0         
_________________________________________________________________
conv1d_12 (Conv1D)           (None, 3, 64)             12352     
_________________________________________________________________
dropout_12 (Dropout)         (None, 3, 64)             0         
_________________________________________________________________
flatten_3 (Flatten)          (None, 192)               0         
_________________________________________________________________
dense_3 (Dense)              (None, 5)                 965       
_________________________________________________________________
activation_3 (Activation)    (None, 5)                 0         
=================================================================
Total params: 63,429
Trainable params: 63,429
Non-trainable params: 0
_________________________________________________________________
None
Train on 135 samples, validate on 30 samples
Epoch 1/600

128/135 [===========================>..] - ETA: 0s - loss: 8.5884e-04 - mean_squared_error: 8.5884e-04
135/135 [==============================] - 1s 6ms/step - loss: 8.5000e-04 - mean_squared_error: 8.5000e-04 - val_loss: 2.4031e-04 - val_mean_squared_error: 2.4031e-04
…
Test score: 0.0002874452620744705, mse: 0.0002874452620744705
Creating CNN model with layers 4, output_dim 64, optimizer adam, dropout 0.4
input_shape (30, 2), output 5
Adding the first Convolution1D layer
Adding MaxPooling1D to downsample the output of convolution by 2X
Adding additional Convolution1D layers 3
Adding additional Convolution1D layers 2
Adding additional Convolution1D layers 1
_________________________________________________________________
Layer (type)                 Output Shape              Param #   
=================================================================
conv1d_13 (Conv1D)           (None, 26, 64)            704       
_________________________________________________________________
dropout_13 (Dropout)         (None, 26, 64)            0         
_________________________________________________________________
max_pooling1d_4 (MaxPooling1 (None, 13, 64)            0         
_________________________________________________________________
conv1d_14 (Conv1D)           (None, 11, 64)            12352     
_________________________________________________________________
dropout_14 (Dropout)         (None, 11, 64)            0         
_________________________________________________________________
conv1d_15 (Conv1D)           (None, 9, 64)             12352     
_________________________________________________________________
dropout_15 (Dropout)         (None, 9, 64)             0         
_________________________________________________________________
conv1d_16 (Conv1D)           (None, 7, 64)             12352     
_________________________________________________________________
dropout_16 (Dropout)         (None, 7, 64)             0         
_________________________________________________________________
flatten_4 (Flatten)          (None, 448)               0         
_________________________________________________________________
dense_4 (Dense)              (None, 5)                 2245      
_________________________________________________________________
activation_4 (Activation)    (None, 5)                 0         
=================================================================
Total params: 40,005
Trainable params: 40,005
Non-trainable params: 0
_________________________________________________________________
None
Train on 135 samples, validate on 30 samples
Epoch 1/400

128/135 [===========================>..] - ETA: 0s - loss: 0.0018 - mean_squared_error: 0.0018
135/135 [==============================] - 1s 5ms/step - loss: 0.0018 - mean_squared_error: 0.0018 - val_loss: 2.3319e-04 - val_mean_squared_error: 2.3319e-04
…
Creating CNN model with layers 6, output_dim 32, optimizer adam, dropout 0.5
input_shape (30, 2), output 5
Adding the first Convolution1D layer
Adding MaxPooling1D to downsample the output of convolution by 2X
Adding additional Convolution1D layers 5
Adding additional Convolution1D layers 4
Adding additional Convolution1D layers 3
Adding additional Convolution1D layers 2
Adding additional Convolution1D layers 1
_________________________________________________________________
Layer (type)                 Output Shape              Param #   
=================================================================
conv1d_17 (Conv1D)           (None, 26, 32)            352       
_________________________________________________________________
dropout_17 (Dropout)         (None, 26, 32)            0         
_________________________________________________________________
max_pooling1d_5 (MaxPooling1 (None, 13, 32)            0         
_________________________________________________________________
conv1d_18 (Conv1D)           (None, 11, 32)            3104      
_________________________________________________________________
dropout_18 (Dropout)         (None, 11, 32)            0         
_________________________________________________________________
conv1d_19 (Conv1D)           (None, 9, 32)             3104      
_________________________________________________________________
dropout_19 (Dropout)         (None, 9, 32)             0         
_________________________________________________________________
conv1d_20 (Conv1D)           (None, 7, 32)             3104      
_________________________________________________________________
dropout_20 (Dropout)         (None, 7, 32)             0         
_________________________________________________________________
conv1d_21 (Conv1D)           (None, 5, 32)             3104      
_________________________________________________________________
dropout_21 (Dropout)         (None, 5, 32)             0         
_________________________________________________________________
conv1d_22 (Conv1D)           (None, 3, 32)             3104      
_________________________________________________________________
dropout_22 (Dropout)         (None, 3, 32)             0         
_________________________________________________________________
flatten_5 (Flatten)          (None, 96)                0         
_________________________________________________________________
dense_5 (Dense)              (None, 5)                 485       
_________________________________________________________________
activation_5 (Activation)    (None, 5)                 0         
=================================================================
Total params: 16,357
Trainable params: 16,357
Non-trainable params: 0
_________________________________________________________________
None
Train on 135 samples, validate on 30 samples
Epoch 1/800

128/135 [===========================>..] - ETA: 0s - loss: 0.0065 - mean_squared_error: 0.0065
135/135 [==============================] - 1s 7ms/step - loss: 0.0065 - mean_squared_error: 0.0065 - val_loss: 2.0803e-04 - val_mean_squared_error: 2.0803e-04
…
