…
historical data is loading from TBrain_Round2_DataSet_20180601/tetfp.csv
set look back to 30 for stock 701
look_back 30, look_forward 5
Creating stateless model with layers 5, output_dim 128, optimizer adam, dropout 0.2
input_shape (30, 2), output 5
Adding the first LSTM layers
Adding additional LSTM layers 4
Adding additional LSTM layers 3
Adding additional LSTM layers 2
Adding additional LSTM layers 1
_________________________________________________________________
Layer (type)                 Output Shape              Param #   
=================================================================
lstm_1 (LSTM)                (None, 30, 128)           67072     
_________________________________________________________________
dropout_1 (Dropout)          (None, 30, 128)           0         
_________________________________________________________________
lstm_2 (LSTM)                (None, 30, 128)           131584    
_________________________________________________________________
dropout_2 (Dropout)          (None, 30, 128)           0         
_________________________________________________________________
lstm_3 (LSTM)                (None, 30, 128)           131584    
_________________________________________________________________
dropout_3 (Dropout)          (None, 30, 128)           0         
_________________________________________________________________
lstm_4 (LSTM)                (None, 30, 128)           131584    
_________________________________________________________________
dropout_4 (Dropout)          (None, 30, 128)           0         
_________________________________________________________________
lstm_5 (LSTM)                (None, 128)               131584    
_________________________________________________________________
dropout_5 (Dropout)          (None, 128)               0         
_________________________________________________________________
dense_1 (Dense)              (None, 5)                 645       
_________________________________________________________________
activation_1 (Activation)    (None, 5)                 0         
=================================================================
Total params: 594,053
Trainable params: 594,053
Non-trainable params: 0
_________________________________________________________________
None
Train on 130 samples, validate on 30 samples
Epoch 1/200

128/130 [============================>.] - ETA: 0s - loss: 7.3393e-04 - mean_squared_error: 7.3393e-04
130/130 [==============================] - 4s 33ms/step - loss: 7.3064e-04 - mean_squared_error: 7.3064e-04 - val_loss: 6.3519e-04 - val_mean_squared_error: 6.3519e-04
…
Epoch 00083: early stopping

30/30 [==============================] - 0s 2ms/step
Test score: 0.0005869710585102439, mse: 0.0005869710585102439
Creating stateless model with layers 4, output_dim 128, optimizer adam, dropout 0.2
input_shape (30, 2), output 5
Adding the first LSTM layers
Adding additional LSTM layers 3
Adding additional LSTM layers 2
Adding additional LSTM layers 1
_________________________________________________________________
Layer (type)                 Output Shape              Param #   
=================================================================
lstm_6 (LSTM)                (None, 30, 128)           67072     
_________________________________________________________________
dropout_6 (Dropout)          (None, 30, 128)           0         
_________________________________________________________________
lstm_7 (LSTM)                (None, 30, 128)           131584    
_________________________________________________________________
dropout_7 (Dropout)          (None, 30, 128)           0         
_________________________________________________________________
lstm_8 (LSTM)                (None, 30, 128)           131584    
_________________________________________________________________
dropout_8 (Dropout)          (None, 30, 128)           0         
_________________________________________________________________
lstm_9 (LSTM)                (None, 128)               131584    
_________________________________________________________________
dropout_9 (Dropout)          (None, 128)               0         
_________________________________________________________________
dense_2 (Dense)              (None, 5)                 645       
_________________________________________________________________
activation_2 (Activation)    (None, 5)                 0         
=================================================================
Total params: 462,469
Trainable params: 462,469
Non-trainable params: 0
_________________________________________________________________
None
Train on 130 samples, validate on 30 samples
Epoch 1/200

128/130 [============================>.] - ETA: 0s - loss: 7.3993e-04 - mean_squared_error: 7.3993e-04
130/130 [==============================] - 3s 25ms/step - loss: 7.3422e-04 - mean_squared_error: 7.3422e-04 - val_loss: 3.8408e-04 - val_mean_squared_error: 3.8408e-04
…
Epoch 00062: early stopping

30/30 [==============================] - 0s 2ms/step
Test score: 0.0002333267475478351, mse: 0.0002333267475478351
Creating stateless model with layers 4, output_dim 256, optimizer adam, dropout 0.2
input_shape (30, 2), output 5
Adding the first LSTM layers
Adding additional LSTM layers 3
Adding additional LSTM layers 2
Adding additional LSTM layers 1
_________________________________________________________________
Layer (type)                 Output Shape              Param #   
=================================================================
lstm_10 (LSTM)               (None, 30, 256)           265216    
_________________________________________________________________
dropout_10 (Dropout)         (None, 30, 256)           0         
_________________________________________________________________
lstm_11 (LSTM)               (None, 30, 256)           525312    
_________________________________________________________________
dropout_11 (Dropout)         (None, 30, 256)           0         
_________________________________________________________________
lstm_12 (LSTM)               (None, 30, 256)           525312    
_________________________________________________________________
dropout_12 (Dropout)         (None, 30, 256)           0         
_________________________________________________________________
lstm_13 (LSTM)               (None, 256)               525312    
_________________________________________________________________
dropout_13 (Dropout)         (None, 256)               0         
_________________________________________________________________
dense_3 (Dense)              (None, 5)                 1285      
_________________________________________________________________
activation_3 (Activation)    (None, 5)                 0         
=================================================================
Total params: 1,842,437
Trainable params: 1,842,437
Non-trainable params: 0
_________________________________________________________________
None
Train on 130 samples, validate on 30 samples
Epoch 1/200

128/130 [============================>.] - ETA: 0s - loss: 7.0519e-04 - mean_squared_error: 7.0519e-04
130/130 [==============================] - 4s 28ms/step - loss: 7.2601e-04 - mean_squared_error: 7.2601e-04 - val_loss: 0.0012 - val_mean_squared_error: 0.0012
…
30/30 [==============================] - 0s 2ms/step
Test score: 0.0001956116029759869, mse: 0.0001956116029759869
Creating stateless model with layers 5, output_dim 256, optimizer adam, dropout 0.2
input_shape (30, 2), output 5
Adding the first LSTM layers
Adding additional LSTM layers 4
Adding additional LSTM layers 3
Adding additional LSTM layers 2
Adding additional LSTM layers 1
_________________________________________________________________
Layer (type)                 Output Shape              Param #   
=================================================================
lstm_14 (LSTM)               (None, 30, 256)           265216    
_________________________________________________________________
dropout_14 (Dropout)         (None, 30, 256)           0         
_________________________________________________________________
lstm_15 (LSTM)               (None, 30, 256)           525312    
_________________________________________________________________
dropout_15 (Dropout)         (None, 30, 256)           0         
_________________________________________________________________
lstm_16 (LSTM)               (None, 30, 256)           525312    
_________________________________________________________________
dropout_16 (Dropout)         (None, 30, 256)           0         
_________________________________________________________________
lstm_17 (LSTM)               (None, 30, 256)           525312    
_________________________________________________________________
dropout_17 (Dropout)         (None, 30, 256)           0         
_________________________________________________________________
lstm_18 (LSTM)               (None, 256)               525312    
_________________________________________________________________
dropout_18 (Dropout)         (None, 256)               0         
_________________________________________________________________
dense_4 (Dense)              (None, 5)                 1285      
_________________________________________________________________
activation_4 (Activation)    (None, 5)                 0         
=================================================================
Total params: 2,367,749
Trainable params: 2,367,749
Non-trainable params: 0
_________________________________________________________________
None
Train on 130 samples, validate on 30 samples
Epoch 1/200

128/130 [============================>.] - ETA: 0s - loss: 7.1840e-04 - mean_squared_error: 7.1840e-04
130/130 [==============================] - 5s 38ms/step - loss: 7.2349e-04 - mean_squared_error: 7.2349e-04 - val_loss: 9.6739e-04 - val_mean_squared_error: 9.6739e-04
…
