…
  59:     return {'loss': mse, 'status': STATUS_OK, 'model': regressor}
  60: 
Loading dataset for 0050
historical data is loading from TBrain_Round2_DataSet_20180331/tetfp.csv
Creating stateless model with layers 4, output_dim 90, optimizer sgd, dropout 0.2
input_shape (50, 1), output 5
Adding the first LSTM layers
Adding additional LSTM layers 3
Adding additional LSTM layers 2
Adding additional LSTM layers 1
_________________________________________________________________
Layer (type)                 Output Shape              Param #   
=================================================================
lstm_1 (LSTM)                (None, 50, 90)            33120     
_________________________________________________________________
dropout_1 (Dropout)          (None, 50, 90)            0         
_________________________________________________________________
lstm_2 (LSTM)                (None, 50, 90)            65160     
_________________________________________________________________
dropout_2 (Dropout)          (None, 50, 90)            0         
_________________________________________________________________
lstm_3 (LSTM)                (None, 50, 90)            65160     
_________________________________________________________________
dropout_3 (Dropout)          (None, 50, 90)            0         
_________________________________________________________________
lstm_4 (LSTM)                (None, 90)                65160     
_________________________________________________________________
dropout_4 (Dropout)          (None, 90)                0         
_________________________________________________________________
dense_1 (Dense)              (None, 5)                 455       
_________________________________________________________________
activation_1 (Activation)    (None, 5)                 0         
=================================================================
Total params: 229,055
Trainable params: 229,055
Non-trainable params: 0
_________________________________________________________________
None
Train on 992 samples, validate on 240 samples
Epoch 1/1

 32/992 [..............................] - ETA: 2:35 - loss: 4.8327e-04 - mean_squared_error: 4.8327e-04
 64/992 [>.............................] - ETA: 1:21 - loss: 8.2569e-04 - mean_squared_error: 8.2569e-04
…
192/240 [=======================>......] - ETA: 0s
224/240 [===========================>..] - ETA: 0s
240/240 [==============================] - 1s 2ms/step
Test score: 0.0017389773080746334, mse: 0.0017389773080746334
Creating stateless model with layers 2, output_dim 50, optimizer adam, dropout 0.3
input_shape (50, 1), output 5
Adding the first LSTM layers
Adding additional LSTM layers 1
_________________________________________________________________
Layer (type)                 Output Shape              Param #   
=================================================================
lstm_5 (LSTM)                (None, 50, 50)            10400     
_________________________________________________________________
dropout_5 (Dropout)          (None, 50, 50)            0         
_________________________________________________________________
lstm_6 (LSTM)                (None, 50)                20200     
_________________________________________________________________
dropout_6 (Dropout)          (None, 50)                0         
_________________________________________________________________
dense_2 (Dense)              (None, 5)                 255       
_________________________________________________________________
activation_2 (Activation)    (None, 5)                 0         
=================================================================
Total params: 30,855
Trainable params: 30,855
Non-trainable params: 0
_________________________________________________________________
None
Train on 992 samples, validate on 240 samples
Epoch 1/10

 32/992 [..............................] - ETA: 1:36 - loss: 4.8156e-04 - mean_squared_error: 4.8156e-04
 64/992 [>.............................] - ETA: 48s - loss: 7.2149e-04 - mean_squared_error: 7.2149e-04 
…
 96/240 [===========>..................] - ETA: 0s
192/240 [=======================>......] - ETA: 0s
240/240 [==============================] - 0s 972us/step
Test score: 0.00035599965679769714, mse: 0.00035599965679769714
Creating stateless model with layers 2, output_dim 60, optimizer adam, dropout 0.2
input_shape (50, 1), output 5
Adding the first LSTM layers
Adding additional LSTM layers 1
_________________________________________________________________
Layer (type)                 Output Shape              Param #   
=================================================================
lstm_7 (LSTM)                (None, 50, 60)            14880     
_________________________________________________________________
dropout_7 (Dropout)          (None, 50, 60)            0         
_________________________________________________________________
lstm_8 (LSTM)                (None, 60)                29040     
_________________________________________________________________
dropout_8 (Dropout)          (None, 60)                0         
_________________________________________________________________
dense_3 (Dense)              (None, 5)                 305       
_________________________________________________________________
activation_3 (Activation)    (None, 5)                 0         
=================================================================
Total params: 44,225
Trainable params: 44,225
Non-trainable params: 0
_________________________________________________________________
None
Train on 992 samples, validate on 240 samples
Epoch 1/50

 32/992 [..............................] - ETA: 5:05 - loss: 4.8871e-04 - mean_squared_error: 4.8871e-04
 64/992 [>.............................] - ETA: 2:30 - loss: 7.1194e-04 - mean_squared_error: 7.1194e-04
…
160/240 [===================>..........] - ETA: 0s
240/240 [==============================] - 0s 836us/step
Test score: 0.0002378851311126103, mse: 0.0002378851311126103
Creating stateless model with layers 3, output_dim 60, optimizer sgd, dropout 0.3
input_shape (50, 1), output 5
Adding the first LSTM layers
Adding additional LSTM layers 2
Adding additional LSTM layers 1
_________________________________________________________________
Layer (type)                 Output Shape              Param #   
=================================================================
lstm_9 (LSTM)                (None, 50, 60)            14880     
_________________________________________________________________
dropout_9 (Dropout)          (None, 50, 60)            0         
_________________________________________________________________
lstm_10 (LSTM)               (None, 50, 60)            29040     
_________________________________________________________________
dropout_10 (Dropout)         (None, 50, 60)            0         
_________________________________________________________________
lstm_11 (LSTM)               (None, 60)                29040     
_________________________________________________________________
dropout_11 (Dropout)         (None, 60)                0         
_________________________________________________________________
dense_4 (Dense)              (None, 5)                 305       
_________________________________________________________________
activation_4 (Activation)    (None, 5)                 0         
=================================================================
Total params: 73,265
Trainable params: 73,265
Non-trainable params: 0
_________________________________________________________________
None
Train on 992 samples, validate on 240 samples
Epoch 1/10

 32/992 [..............................] - ETA: 4:04 - loss: 4.7973e-04 - mean_squared_error: 4.7973e-04
 64/992 [>.............................] - ETA: 2:02 - loss: 8.4070e-04 - mean_squared_error: 8.4070e-04
…
192/240 [=======================>......] - ETA: 0s
240/240 [==============================] - 0s 2ms/step
Test score: 0.0014398972930697103, mse: 0.0014398972930697103
Creating stateless model with layers 3, output_dim 50, optimizer adam, dropout 0.3
input_shape (50, 1), output 5
Adding the first LSTM layers
Adding additional LSTM layers 2
Adding additional LSTM layers 1
_________________________________________________________________
Layer (type)                 Output Shape              Param #   
=================================================================
lstm_12 (LSTM)               (None, 50, 50)            10400     
_________________________________________________________________
dropout_12 (Dropout)         (None, 50, 50)            0         
_________________________________________________________________
lstm_13 (LSTM)               (None, 50, 50)            20200     
_________________________________________________________________
dropout_13 (Dropout)         (None, 50, 50)            0         
_________________________________________________________________
lstm_14 (LSTM)               (None, 50)                20200     
_________________________________________________________________
dropout_14 (Dropout)         (None, 50)                0         
_________________________________________________________________
dense_5 (Dense)              (None, 5)                 255       
_________________________________________________________________
activation_5 (Activation)    (None, 5)                 0         
=================================================================
Total params: 51,055
Trainable params: 51,055
Non-trainable params: 0
_________________________________________________________________
None
Train on 992 samples, validate on 240 samples
Epoch 1/50

 32/992 [..............................] - ETA: 3:47 - loss: 4.7920e-04 - mean_squared_error: 4.7920e-04
 64/992 [>.............................] - ETA: 1:53 - loss: 7.1347e-04 - mean_squared_error: 7.1347e-04
…
